infeasible_initial_best.pth (torch, 4587 bytes, 3 tensors)

layer.0.weight f4 [120, 5]
000000 23 56 b8 3e 5c 47 e2 be 92 c7 9b be c5 15 9d bd
       0.36003217 -0.44195068 -0.30425698 -0.07670168
000010 5b a0 c3 3e b8 14 80 3d 95 81 ce be 20 70 bc 3b
       0.3820828 0.06253952 -0.40333238 0.005750671
000020 19 44 2e be bc 00 fc 3d b5 4d 39 be fa 6f 87 be
       -0.17018165 0.123048276 -0.18096049 -0.2645262
000030 6f c3 86 3d 29 7d 81 3e c2 a1 97 be 56 49 40 be
       0.06580245 0.25290802 -0.296156 -0.18777975
000040 e0 35 68 be fa f1 89 3e 53 d4 52 be e6 1e 02 3e
       -0.22676802 0.26942426 -0.20588808 0.127071
000050 9c ee 5d bb 27 de fe bd 16 01 8d be e4 77 af 3e
       -0.0033864146 -0.12444716 -0.2753989 0.34271157
000060 30 79 63 be ea 79 96 be 8c 31 04 3d 3d e7 f1 3d
       -0.22214198 -0.29389888 0.032273814 0.11811683
000070 8f 68 d7 3e cf b7 da 3e c5 54 9c be 5c e2 55 3e
       0.4207196 0.4271836 -0.30533424 0.2088713
000080 be 28 a5 3c 51 1f c6 3e c5 39 af 3e dd a4 d0 3e
       0.020161029 0.38695768 0.34223762 0.4075078
000090 02 3f 98 3d 04 3d 48 3b 0b 79 4b be d9 a1 d3 3e
       0.07433893 0.0030553946 -0.19870393 0.41334417
0000a0 c4 01 b1 3c 77 e0 d0 be 13 5f 90 3e b6 23 9b be
       0.021607287 -0.40796253 0.28197536 -0.30300683
0000b0 6e 2c 9c 3d b4 d8 f5 3e 1f cf 20 3e 39 63 d7 3e
       0.07625662 0.48016894 0.1570401 0.42067888
0000c0 48 0a ce 3d ca d3 e8 3d 79 45 db 3d 84 e7 cb 3e
       0.10060555 0.113685206 0.1070661 0.3982507
0000d0 a2 59 3b 3d 87 0a 2a 3e 10 68 6a be c7 db d7 be
       0.045739777 0.16605578 -0.22891259 -0.42159864
0000e0 fe 1e b4 3e 28 8c d0 3e 5a f1 b3 be 6f 35 cd 3e
       0.35179895 0.4073193 -0.35145074 0.4007983
0000f0 b8 d4 3a be ab 8a ad be a4 1a f7 bb 5d d4 c6 be
       -0.18245208 -0.33894858 -0.0075410176 -0.38833895
000100 88 81 2d be f3 a9 1f be 74 43 8f be 84 22 c3 be
       -0.16943944 -0.15592174 -0.2798115 -0.3811227
000110 89 46 bc 3e b8 f7 c3 3e 56 b9 e1 3e d9 f9 22 be
       0.36772564 0.38274932 0.44086713 -0.15915622
000120 ca 12 2c be 3f 85 fc 3d 9c 29 ab be 68 b1 c6 be
       -0.16804042 0.12330102 -0.33430183 -0.38807225
000130 cb 9f ba 3e ff 66 a2 3e d3 dd 85 bd 44 b9 47 be
       0.36450037 0.31719205 -0.0653645 -0.19504267
000140 29 56 7e be 52 09 a2 be be 28 3d be 5b c3 d0 be
       -0.24837555 -0.31647736 -0.18472573 -0.40774044
000150 65 6c 9a be 5f cb af be ef 90 5b 3e 14 cd 98 be
       -0.30160823 -0.34334847 0.21442007 -0.29843962
000160 54 60 45 bd 3c bb ec 3e b9 0d 8f 3e a4 bd b5 be
       -0.04818757 0.46236598 0.27940157 -0.35496247
000170 d5 5b ec 3e 0a 16 9f be 76 b1 ae 3e f4 d5 a4 bd
       0.46163812 -0.31071502 0.34119767 -0.08048621
000180 50 fb 8b be d6 c3 44 3e 58 3d 54 3e cb 7c ce 3e
       -0.27340174 0.1921533 0.20726526 0.40329584
000190 58 42 49 bd dc b7 c2 be 3e d5 71 3e 8f af 30 3e
       -0.049135536 -0.380309 0.23616502 0.1725447
0001a0 33 e5 cd 3e 5d 21 d1 be 05 12 ad be c9 6a bd be
       0.40213928 -0.40845767 -0.3380281 -0.36995533
0001b0 20 53 5c be 86 2c d4 be 1d e4 d9 be 7d 8f 52 3e
       -0.21516085 -0.4144022 -0.4255685 0.20562549
0001c0 61 19 68 3e 25 62 e7 3d b9 36 d0 3d d8 05 4d be
       0.22665931 0.112980165 0.101666875 -0.2002176
0001d0 90 cb 8f be e3 92 d9 3e 9e 9f b1 be 5a 13 58 3e
       -0.28084993 0.42494878 -0.3469209 0.21101132
0001e0 ff 5b 18 be fe 09 96 be e7 b1 d2 be 65 70 a7 be
       -0.14878844 -0.29304498 -0.41151354 -0.32702938
0001f0 d8 d4 85 be 88 4d ae 3e ce a2 b7 be 66 bd 91 3e
       -0.2613895 0.34043527 -0.35866398 0.28464812
000200 70 53 47 3e a2 3d ac 3e 51 d3 37 3c 36 1f c3 be
       0.19465423 0.33640772 0.011219815 -0.3810975
000210 c3 f6 33 3d 16 53 d2 3e 23 9d 80 be 0a fa da be
       0.043936502 0.41079015 -0.25119886 -0.4276889
000220 9f 2e a0 3e b8 42 ad 3e fe 2f 23 3e 2f 91 af be
       0.3128557 0.33839965 0.15936276 -0.34290454
000230 d4 c5 e7 be 42 dc 8c bd 1e 6d cd bc 68 00 61 be
       -0.45268118 -0.06877948 -0.025076445 -0.21972811
000240 10 35 83 be ad b2 d5 be 75 d1 81 3d e1 87 fe 3d
       -0.2562642 -0.4173788 0.06338779 0.124282606
000250 15 53 ab be 30 34 ac be 7a 2a 21 3e 1d 7b fb 3d
       -0.33461824 -0.33633566 0.1573886 0.12279341
000260 8e 88 b4 3e 07 fc 26 be 8b f9 5a 3e 86 4d d9 3e
       0.35260433 -0.16307078 0.21384256 0.42441958
000270 11 fb 08 3e bf 2e 52 bd 55 b4 b8 3e 48 cd 8b be
       0.13377024 -0.05131411 0.36075082 -0.27305055
000280 f9 db 00 3e 2a 32 ef 3c e4 29 cf 3e bc 99 ad be
       0.12583913 0.029198725 0.40461648 -0.33906353
000290 2d b2 d1 3e 79 c3 37 3e 07 fa 99 bb d6 02 b7 bd
       0.4095625 0.1794566 -0.004698995 -0.08936088
0002a0 77 86 ab bd b0 71 1b be aa 6d da 3e 20 77 67 3e
       -0.083752565 -0.15180087 0.42661792 0.22604036
0002b0 72 78 c2 be b1 6b 37 3d 2e e0 16 be c1 22 fc bd
       -0.37982517 0.044780437 -0.14733955 -0.12311316
0002c0 2a 4c ec bc cd 08 78 be c3 31 4a be c1 db 8f be
       -0.028844912 -0.24222107 -0.19745545 -0.28097346
0002d0 cc 0e db bd ec c5 da be 42 ba 71 be b4 61 9d be
       -0.10696182 -0.42729127 -0.23606208 -0.30738604
0002e0 27 38 3c be 4b 26 f3 bc 4d 2d b1 3e 7f 7c 2c be
       -0.18380795 -0.029681345 0.34604874 -0.16844366
0002f0 ef 96 5f be 0d 8e 88 be ec 2f 73 3d 59 12 a3 be
       -0.2183492 -0.26670876 0.059371874 -0.31849936
000300 2a 1d ab be 6c 2d 20 3e 1f ec db 3d 51 74 e6 3e
       -0.33420688 0.15642327 0.10738396 0.45010617
000310 18 ec 58 3e 9a ab 02 3e d8 f6 30 3d 97 b0 dd 3e
       0.21183813 0.12760773 0.04320416 0.4329879
000320 4f d9 d4 be 8e dd 5a be 09 47 18 3e f1 87 81 3e
       -0.41572043 -0.21373579 0.14870848 0.25299028
000330 cc d0 9a be 85 39 bd 3d 91 d4 a7 3d d4 0a 8b be
       -0.30237424 0.092394866 0.08194841 -0.271567
000340 7d 67 99 bd ca 86 d7 3e 69 91 5d 3d 2b 10 dd be
       -0.07490442 0.42095023 0.054093752 -0.43176398
000350 38 dc c8 3e eb ff c2 3e ef b8 ff 3d b9 90 8c 3e
       0.39230514 0.38085875 0.12486445 0.27454165
000360 1b 30 4b 3c 52 0a 92 bd e6 06 2d 3e 2c 4a 3d 3e
       0.012401606 -0.07130875 0.16897163 0.18485326
000370 eb c6 0e 3e fd 32 ce be 50 f4 bf 3e a6 d5 97 be
       0.13943069 -0.40273276 0.37491083 -0.29655188
000380 e1 69 8f 3c 52 d3 a2 be 2a a5 9a be 72 5d 1e 3e
       0.017506542 -0.3180185 -0.30204135 0.15465334
000390 d4 dc b4 bb 07 47 a2 3e 02 40 86 3c de a8 17 3e
       -0.005519489 0.31694815 0.016387943 0.14810511
0003a0 d3 05 65 3e 02 43 0c 3e 95 fb d3 3c c4 d7 85 be
       0.22365503 0.13697436 0.0258768 -0.2614118
0003b0 60 ab 4d be 2e a1 4a 3c e4 47 ad 3e d7 05 d8 3d
       -0.20084906 0.01236753 0.3384391 0.10547989
0003c0 9c 8f 68 be 92 ca 3f 3e da f7 a3 bc 98 72 bf 3e
       -0.22711033 0.18729618 -0.020015646 0.37392116
0003d0 3f 8f a0 3e 58 fc 66 be 2b 8a 82 3e d8 c4 87 3b
       0.31359288 -0.22557199 0.2549604 0.0041433387
0003e0 39 62 04 be 49 11 08 3e f9 00 7c 3e e2 0c dd 3e
       -0.12928094 0.13287844 0.24609746 0.4317389
0003f0 30 55 88 3e d2 c3 d4 be 4e cc cb be 3d 3b 9e bd
       0.26627493 -0.4155565 -0.3980431 -0.077261426

layer.0.bias f4 [120]
000000 68 8f 1b be 7b 72 e3 bd e5 71 96 3e 71 a6 c5 be
       -0.15191424 -0.1110582 0.2938377 -0.38603547
000010 2f b1 db be 6b 70 32 be 8a 0d b8 bd a1 16 85 bd
       -0.42908618 -0.17425697 -0.08986957 -0.06498457
000020 4f e7 5e 3e c2 50 9f 3e 5d 72 3d be d3 e6 92 be
       0.21767925 0.311163 -0.18500657 -0.2869173
000030 56 95 ba be e4 b6 da bd f4 9b 28 be 13 ca f2 bd
       -0.3644206 -0.10679415 -0.16465741 -0.11854949
000040 ef 0c 09 3d 07 52 e5 3e 40 22 6b 3e 16 2f a7 3e
       0.0334596 0.44789144 0.22962284 0.3265311
000050 28 19 a7 bd 96 8e 68 3e 29 9e 49 3e de 55 97 3e
       -0.08159095 0.22710642 0.1968924 0.295577
000060 2a be 84 3e 7a f4 0c 3e 0f ee 00 3e b8 ee 3e be
       0.25926334 0.13765135 0.12590812 -0.18645751
000070 92 ef 96 be 77 7c cb be fc bf ad bd aa a1 3e 3e
       -0.29479653 -0.39743397 -0.08483884 0.18616357
000080 63 c8 e1 3d 32 c2 e0 3e 12 55 df 3d f4 74 01 3e
       0.11024549 0.4389816 0.10904898 0.1264227
000090 e9 a8 e0 be 4b 3e f0 bd 33 57 05 be f4 87 99 bd
       -0.43878868 -0.117306314 -0.13021545 -0.07496634
0000a0 ad f7 d3 be b7 27 93 3e 69 2f 8f 3e eb e9 2d be
       -0.413999 0.28741238 0.2796586 -0.16983764
0000b0 ba 0d 3d 3e a4 9f 61 bc 49 49 b6 be 55 49 d0 be
       0.18462268 -0.013770971 -0.35602787 -0.40680948
0000c0 30 c5 9f be 6d ae a4 3e 91 bc de 3e 3f 8a de 3e
       -0.3120513 0.32164326 0.4350324 0.43464848
0000d0 86 cb dd 3e b8 5b 81 3e 17 b8 ca be 7b 38 81 be
       0.4331934 0.25265288 -0.39593574 -0.25238404
0000e0 9b 16 8e bd 5b fc 4d be ce 22 c4 3e 3c d3 44 3e
       -0.069379054 -0.20115797 0.38307804 0.19221205
0000f0 fc d4 ab 3e ef 13 d1 3e d7 e5 04 3e 64 bc 83 be
       0.33560932 0.4083552 0.12978302 -0.25729668
000100 da 0e 14 be e6 5f 92 3e 91 24 21 be 0d 11 64 3d
       -0.1445879 0.2858879 -0.15736605 0.055680323
000110 52 73 c4 be 57 f8 7f be 1d 37 42 3d 7d 4e 99 3e
       -0.38369232 -0.24997078 0.04741584 0.29942694
000120 1f a3 ce be 45 88 b5 3e 3c f5 61 3e 7a 3c ac 3e
       -0.40358827 0.35455528 0.22066206 0.3363989
000130 fe 5b aa be 7d 89 b8 3e d3 b5 6d bd 6c d8 4c be
       -0.3327331 0.36042395 -0.05803473 -0.20004433
000140 3d 78 e0 3b 04 05 ac 3e 12 26 bc 3e 50 2f c4 3e
       0.006850271 0.33597577 0.36747795 0.38317347
000150 05 b2 05 3e 20 37 71 3e 12 21 4d be 65 95 e0 bc
       0.1305619 0.23556185 -0.20032147 -0.027414987
000160 3a 6f 7d bd da c6 bc bd 5c de 76 3e e0 12 17 be
       -0.061873652 -0.092176154 0.24108261 -0.14753294
000170 f4 70 1f 3e 27 4e cb be 0a ab 49 3e 9d f5 4a 3d
       0.15570432 -0.39708063 0.19694152 0.04955064
000180 43 32 c7 be 87 be a1 be ad 4e 87 be c4 59 0f 3d
       -0.38905534 -0.31590673 -0.26427212 0.034997717
000190 4c f2 7d 3e 92 88 d8 3e 54 12 c1 3e 68 1a 6a 3e
       0.2479946 0.42291695 0.37709296 0.22861636
0001a0 fd df da 3e fe f1 27 be ba 0f 73 bd 87 7c a9 3e
       0.42749014 -0.16400906 -0.05934117 0.3310282
0001b0 a0 f4 ce be 46 7c 88 3e 91 aa 8e be 0a be b2 bd
       -0.4042101 0.26657313 -0.27864507 -0.08727653
0001c0 f5 eb 84 be ce 13 03 3e 95 be a3 be 5a 22 d2 3e
       -0.2596127 0.12800524 -0.3198134 0.41041833
0001d0 80 e6 bf be 49 3b 82 be 33 34 6f 3e f6 23 71 3d
       -0.37480545 -0.25435856 0.23359756 0.058872186

layer.2.weight f4 [1, 120]
000000 54 e7 45 3d 88 58 00 3e 85 33 7b bc 3e 33 91 3d
       0.048316315 0.12533772 -0.015332107 0.07089852
000010 74 1a 6c bd b8 6f 52 3d 0f 67 3c 3d 86 e3 40 bc
       -0.057642415 0.051376075 0.04599672 -0.011772996
000020 a1 6d 8c 3c 34 3b a2 3d 1e cc eb bd 5f a0 58 3d
       0.017142119 0.07921448 -0.11513542 0.052887317
000030 1e 17 8d 3d d1 78 1c bd 7f 75 6b 3c 21 27 4c 3d
       0.06889175 -0.038201157 0.014371275 0.049842004
000040 6c 9c e9 3d 16 c4 0d 3b e0 2a c6 3c 51 52 a4 3b
       0.11406788 0.002163177 0.024190366 0.0050146957
000050 6c 8a 23 3d b4 02 7d 3d b8 4c d6 3d 91 7f aa bc
       0.03992693 0.061770156 0.10463852 -0.020812782
000060 54 3e 39 3b 44 25 81 bd 1c 3f 50 bc 18 12 97 3d
       0.002826591 -0.06305936 -0.012710359 0.07376498
000070 04 d6 f8 bd 65 39 57 3d 76 19 92 3d 7a 23 0f 3c
       -0.12150195 0.05254497 0.071337625 0.008736486
000080 27 11 fe bc ba 19 cd bd a7 ee b8 bd c3 0c 02 bd
       -0.031014038 -0.100146726 -0.09029894 -0.03175045
000090 b7 c2 7d bd de 29 39 3d 04 34 5b bc 5a 1d ca bc
       -0.061953273 0.045205943 -0.013379101 -0.024672199
0000a0 83 77 40 3d 7f 4e e8 3c 9a 33 24 3d e0 ba 29 bc
       0.046988975 0.028357742 0.040088274 -0.010359496
0000b0 b7 7e 2e 3a 4c a2 8b 3d a4 92 34 bd 5d e4 b4 3d
       0.0006656455 0.06818065 -0.04408516 0.08832619
0000c0 24 69 85 3c 46 ea 20 bd 2c 5f 6b 3d f3 b4 82 bc
       0.016285487 -0.03928592 0.05746381 -0.015955424
0000d0 f9 2f 3c bd c8 48 1e bd fc 0c be 3c 33 5b 9c bc
       -0.045944188 -0.03864363 0.02319955 -0.019086456
0000e0 86 3e 30 bd 00 90 80 bb cb 35 8f bd 7c be 34 be
       -0.043028377 -0.003923416 -0.06992682 -0.17650789
0000f0 d1 15 16 3d 13 e6 f4 3c 48 56 98 bc d8 87 69 bd
       0.0366419 0.029894864 -0.01859583 -0.057014316
000100 e6 eb 2c 3d e2 b5 33 bd 66 84 02 bd 86 9a f1 bc
       0.042217158 -0.04387463 -0.031864546 -0.029492628
000110 4d 2b bb 3d d2 d6 53 3c 90 4e 8e 3c 71 20 fa bc
       0.09139118 0.012929635 0.017371446 -0.030533047
000120 12 c2 82 3c 9c 25 12 be 7c db 42 bd 2b 92 e1 bc
       0.01596168 -0.1427216 -0.047572598 -0.027535519
000130 96 33 3b bd a6 52 ae 3c 33 db 9c bd 76 f1 e4 bc
       -0.045703493 0.021279644 -0.076589964 -0.027947169
000140 eb 39 c9 bc 26 81 0a bd 08 47 62 bd 15 cd 99 3d
       -0.02456375 -0.03381457 -0.055243522 0.075098194
000150 17 8a 47 bc 3d b6 76 bc 71 50 82 3b 2f ed b8 bc
       -0.012178919 -0.015058097 0.0039768745 -0.022574035
000160 7f 59 ea bb 6e ec a2 bd bc 91 8a bc 52 2a 66 bc
       -0.007151782 -0.07955252 -0.016915195 -0.014048176
000170 86 00 3f bd 00 87 06 bd 1f 6c 1e bd 50 6a c0 bc
       -0.04663136 -0.03284359 -0.03867733 -0.023488194
000180 d1 aa 91 bd df 32 a7 bd 9b 72 10 3d d5 d9 53 3d
       -0.07112659 -0.08164 0.035265546 0.051721413
000190 8a 5b 18 bc 26 df 54 3c 74 a8 af 3b 03 6c 46 bd
       -0.009299168 0.012992656 0.0053606573 -0.04844285
0001a0 44 10 bb bc 4b 3e 94 3d 96 11 6a bc a1 7f a8 bc
       -0.022834904 0.07238444 -0.014286419 -0.02056867
0001b0 51 9a ad 3d c3 5d c5 bd da 31 30 bd c7 09 e7 3b
       0.08476699 -0.09637024 -0.043016292 0.007050726
0001c0 8e 61 67 bc bd a1 98 3d 72 eb 4e bc 42 95 75 3c
       -0.01412238 0.07452724 -0.012629377 0.014989199
0001d0 84 bc 45 bd bd f4 cb 3c c7 fa 5e 3d 68 a7 40 3d
       -0.048275486 0.024896974 0.05443838 0.04703465
