save-dir/cpo.pt (torch, 87307 bytes, 9 tensors)

layer.0.weight f4 [120, 5]
000000 e8 f1 90 3e fb 79 e3 be 57 9a c7 be 38 4e c4 bd
       0.2830956 -0.44429 -0.3898494 -0.095852315
000010 93 2f b7 3e dc e9 07 3e 61 c6 c0 be 3b 07 21 be
       0.35778484 0.13272804 -0.3765135 -0.15725414
000020 34 00 96 bd 98 3e 26 3e f7 39 e1 bd 39 3f 90 be
       -0.073242575 0.16234815 -0.10997384 -0.28173235
000030 79 55 00 3e d7 0e 81 3e fc da 9f be fa c7 6a be
       0.12532605 0.25206634 -0.3122176 -0.22927848
000040 93 19 69 be 9e 0f 77 3e 3a 49 5c be e0 1e cd 3d
       -0.22763662 0.24127051 -0.21512309 0.100156546
000050 34 73 a0 3d 94 a3 05 be 55 08 44 be 5b d2 c1 3e
       0.07834473 -0.13050681 -0.19143803 0.378558
000060 a9 3a 69 be 41 47 8b be ef 2c 04 3d 0c 00 f0 3d
       -0.22776283 -0.272028 0.032269415 0.11718759
000070 e3 20 db 3e 81 73 de 3e fb 11 9d be 89 df 55 3e
       0.42798528 0.43447497 -0.3067778 0.20886053
000080 17 7b 36 bd 97 85 c2 3e d5 e2 ae 3e 49 55 d4 3e
       -0.04455098 0.37992546 0.34157434 0.41471317
000090 ea f3 98 3d 86 ee 4d bd 3e 6a 4f be f0 b6 cd 3e
       0.07468398 -0.0502763 -0.20255372 0.40178633
0000a0 37 6c 9b 3d ff c7 d0 be 14 74 82 3e ba 35 a5 be
       0.07589 -0.40777585 0.25479186 -0.32267553
0000b0 6c d3 5c 3d cd 90 dd 3e 9a b4 20 3e d5 54 e6 3e
       0.053912565 0.43274537 0.15693894 0.44986597
0000c0 a6 50 df 3d 8a 59 16 3e 73 ed c9 bb 95 c0 cd 3e
       0.10904054 0.14682594 -0.0061623394 0.4018599
0000d0 99 8e 1f bd 77 71 24 3e da b3 75 be ab 1c a4 be
       -0.03895435 0.16058908 -0.23994389 -0.32053122
0000e0 38 50 b3 3e 01 e8 f9 3e 52 5f b2 be 2a a0 d2 3e
       0.3502214 0.48809817 -0.3483835 0.4113782
0000f0 a1 5d 24 be 31 71 b3 be b3 4c 1e 3c d3 dd c7 be
       -0.16051342 -0.35047296 0.009661841 -0.39036426
000100 7c 10 35 be 18 dc 90 bd 24 43 8f be 2a c0 ce be
       -0.1768207 -0.070732296 -0.27980912 -0.40380985
000110 eb 73 bf 3e cb 44 c2 3e 81 28 e1 3e 47 d6 21 be
       0.37393126 0.3794311 0.43976215 -0.15804397
000120 fc a4 2b be bd 7b 0f 3e 61 3e a7 be 18 97 ca be
       -0.16762155 0.14012046 -0.3266478 -0.395684
000130 79 bf ba 3e 3a ca 9d 3e 33 f7 7a bd 49 4e 45 be
       0.36474207 0.3081835 -0.061270904 -0.19268145
000140 0c e2 85 bd 6c be a5 be 9b ef 29 be 5c 14 da be
       -0.06537256 -0.32371843 -0.16595308 -0.42593658
000150 c8 33 be be dd dc 9f be 1a 95 5b 3e b1 1b c1 be
       -0.3714888 -0.31223193 0.21443596 -0.3771644
000160 75 20 65 bd 69 ff db 3e 7f e3 a9 3e e3 cf b5 be
       -0.055939157 0.429683 0.33181378 -0.35510167
000170 91 f2 dc 3e 67 2d a3 be 55 b4 a4 3e a0 68 aa bd
       0.43153813 -0.31870577 0.32168832 -0.08320737
000180 f3 9f 8b be 96 a6 3f 3e f3 07 58 3e ee 9e cf 3e
       -0.2727047 0.18715891 0.21096782 0.4055094
000190 45 3c db bd ea 69 bf be 4c 42 42 3e 7d e8 37 3e
       -0.10704855 -0.37385494 0.18970603 0.17959781
0001a0 d8 e6 d3 3e 8a 0d de be 9d 9b ae be 15 96 9b be
       0.41387057 -0.43369704 -0.341031 -0.3038794
0001b0 57 55 77 be b2 a3 d8 be 97 b4 e0 be bd 71 53 3e
       -0.24153648 -0.4231239 -0.4388778 0.20648856
0001c0 1b b3 54 3e 47 4c c6 3d 4a 05 c2 3d 50 04 36 be
       0.20771448 0.096825175 0.09473665 -0.17775083
0001d0 14 f2 8f be 40 9e de 3e 68 1d b0 be d9 04 5b 3e
       -0.28114378 0.4348011 -0.34397435 0.21388568
0001e0 ba de 20 be ea 5c 96 be e3 06 d0 be 80 f7 a8 be
       -0.15709963 -0.29367763 -0.40630254 -0.33001328
0001f0 3d da 84 be 6e 6b 98 3e 1e 88 b5 be e8 b3 76 3e
       -0.25947753 0.29769462 -0.35455412 0.24092066
000200 65 77 73 3e ad 71 c3 3e df 09 60 3d 7c b8 c5 be
       0.23776014 0.38172665 0.054696914 -0.38617313
000210 d9 eb 7f bd 48 94 c2 3e 02 b0 90 be 94 18 cf be
       -0.06248078 0.38003755 -0.28259283 -0.4044844
000220 bf 91 9d 3e 97 4a ba 3e 3b 4e 24 3e c0 07 b3 be
       0.30775258 0.36385033 0.16045468 -0.3496685
000230 2d e8 d9 be b6 ce 8b bd 13 b0 64 bd ee c6 64 be
       -0.4255995 -0.06826536 -0.05583198 -0.2234151
000240 ad 08 8c be 91 cc eb be 29 f7 84 3d b9 23 0b 3e
       -0.2735037 -0.4605451 0.064924546 0.13587846
000250 8a b7 99 be 62 15 9d be 8f d2 98 3e 88 6e f9 3d
       -0.30022842 -0.30680376 0.29848143 0.12179285
000260 38 c7 92 3e cb 9d 3a be a3 72 26 3e a5 de d7 3e
       0.28667617 -0.18224256 0.16254668 0.42162052
000270 57 23 09 3e a5 50 b9 3c 80 7a c5 3e d7 80 81 be
       0.13392387 0.022621462 0.38570023 -0.2529361
000280 de b5 d6 3d 77 61 f2 3c aa b2 ce 3e 20 a9 ab be
       0.10483907 0.02958749 0.40370685 -0.3352747
000290 be 4a d6 3e ca d6 3b 3e 42 6c 98 bb 12 bf 68 bd
       0.418539 0.18343654 -0.004651577 -0.056822844
0002a0 0c e5 d3 bd 6f de 1e be 5e 6d dc 3e 7a cf 6d 3e
       -0.103464216 -0.15514539 0.4305219 0.23223677
0002b0 80 90 c4 be 84 2e 84 3d 16 e9 e4 bd 93 b1 1d be
       -0.38391495 0.06454185 -0.1117727 -0.1539977
0002c0 31 2c e4 bc a2 bc 76 be 9e d8 44 be 7d ca 87 be
       -0.027853103 -0.24095395 -0.19223258 -0.26521674
0002d0 33 18 b7 bd a9 48 d9 be 61 fc 7b be 29 80 9e be
       -0.089401625 -0.42438248 -0.24607994 -0.30957153
0002e0 42 85 3a be ee e5 11 bd fd d4 b2 3e 56 c0 47 be
       -0.18214896 -0.03561967 0.34928122 -0.19506964
0002f0 21 56 50 be 19 04 87 be 06 89 78 3d 42 30 a3 be
       -0.20345356 -0.26370314 0.06067755 -0.31872755
000300 9b c1 b2 be cb be 06 3e 73 aa af 3d 4b 13 de 3e
       -0.34913334 0.13158719 0.085774325 0.43374094
000310 2a 89 56 3e ae 4a 46 3e 88 d6 08 3d 3a ad d9 3e
       0.20950761 0.19364426 0.033407718 0.42514974
000320 bd 92 c9 be fd 9e 61 be 49 04 35 3e db a5 63 3e
       -0.39369765 -0.22033305 0.17677416 0.22231238
000330 90 fb a9 be 01 dc 85 3d c8 c7 a7 3d 34 10 70 be
       -0.3319974 0.06536103 0.08192402 -0.23443681
000340 61 f7 88 bd 90 41 e4 3e 7e 9a 25 3c 36 ea de be
       -0.06687809 0.4458127 0.010107635 -0.43538064
000350 aa 7f d5 3e 3d 5c b8 3e 5d 5d eb 3d 2a 6e 89 3e
       0.41698962 0.36007872 0.11492417 0.2684186
000360 4f 5e 52 3c e1 4f 2e 3b 29 cc 2f 3e a8 af 50 3e
       0.012839868 0.0026597905 0.17167725 0.20379508
000370 28 b4 0f 3e 63 37 ce be cc 09 b8 3e b9 e9 a2 be
       0.14033568 -0.40276632 0.35944974 -0.3181894
000380 90 70 ed bb b3 a3 aa be 36 b4 99 be 3e d6 f0 3d
       -0.0072460845 -0.33328018 -0.30020303 0.117596135
000390 50 f0 9d bb d8 eb a2 3e ba 6b 2c 3c 33 15 17 3e
       -0.0048199072 0.3182056 0.010523731 0.1475418
0003a0 39 22 6a 3e 39 bc 0a 3e 37 27 dc 3c fd 8e 64 be
       0.22864617 0.13548364 0.026874168 -0.2232017
0003b0 47 c0 4d be 72 de 23 3c f1 21 b4 3e d0 36 eb 3d
       -0.20092879 0.010001766 0.35182145 0.11485064
0003c0 57 56 61 be f6 cf 3f 3e 0f 9f fa bd a6 35 c6 3e
       -0.22005592 0.18731675 -0.12237369 0.38712806
0003d0 94 d9 99 3e 6e 19 6c be ac f2 80 3e 40 e5 08 bd
       0.3004881 -0.23056576 0.25185144 -0.033421755
0003e0 7f dc 1c be 09 6e d2 3d 17 b2 6f 3e f2 11 dd 3e
       -0.15318488 0.10274894 0.2340778 0.43177754
0003f0 e8 b2 b1 3d 38 ff e5 be 87 bb e3 be 45 fa d9 bd
       0.08676702 -0.4492128 -0.4447901 -0.10643438

layer.0.bias f4 [120]
000000 97 d4 1c be ee 76 df bd a2 fd 95 3e ee 56 c6 be
       -0.15315472 -0.10911356 0.2929507 -0.38738197
000010 bf da db be 8c 11 32 be 9a 26 b8 bd 07 44 86 bd
       -0.42940328 -0.17389506 -0.08991738 -0.06555944
000020 ab be 5d 3e b4 29 a0 3e 1f 0a 3e be a9 a0 92 be
       0.21654765 0.31281817 -0.18558548 -0.286382
000030 6b d3 ba be d6 09 db bd 19 34 28 be 91 89 f2 bd
       -0.36489424 -0.106952354 -0.16426124 -0.11842645
000040 83 f6 f4 3c 68 7e e4 3e 9b 24 6a 3e c0 3d a7 3e
       0.029902702 0.4462769 0.22865526 0.326643
000050 3a ec a5 bd d1 21 68 3e 75 45 49 3e ff 68 97 3e
       -0.08101697 0.2266915 0.19655402 0.29572293
000060 1a ca 84 3e 6e 47 0f 3e 34 b5 fe 3d 5e 42 3f be
       0.2593544 0.13992092 0.124369055 -0.18677661
000070 6a 62 97 be 03 b9 ca be 22 dc b2 bd cc ae 3f 3e
       -0.2956727 -0.39594278 -0.08733393 0.18719023
000080 a4 a6 e2 3d bb a9 e0 3e 12 fc e2 3d 49 4b 02 3e
       0.110669404 0.43879494 0.11083235 0.12724032
000090 0b 93 e0 be f4 f0 ef bd 8a 73 06 be 16 56 9a bd
       -0.43862185 -0.1171588 -0.13130012 -0.07535951
0000a0 d5 bb d4 be 89 d0 93 3e 90 eb 8e 3e d1 fa 2c be
       -0.41549554 0.28870037 0.27914095 -0.16892554
0000b0 fa be 3b 3e d1 a1 60 bc 35 44 b6 be b9 0d d0 be
       0.1833457 -0.013710455 -0.35598913 -0.4063547
0000c0 0f 15 a0 be dc e5 a3 3e 0a 8b dd 3e 93 62 de 3e
       -0.31266066 0.32011306 0.4327014 0.4343458
0000d0 e1 50 de 3e 6b 3f 82 3e 23 70 ca be 87 37 81 be
       0.4342108 0.2543901 -0.3953868 -0.25237677
0000e0 c6 37 8a bd 1b 0f 4e be 0c 34 c4 3e a4 1c 44 3e
       -0.06748919 -0.2012295 0.3832096 0.1915155
0000f0 16 58 ac 3e 9c 5b d0 3e bd ae 05 3e 9e 6d 84 be
       0.33660954 0.40694892 0.13054939 -0.2586488
000100 c9 69 13 be 3d 1b 92 3e e2 f9 20 be ce fd 62 3d
       -0.14395823 0.28536406 -0.15720323 0.05541783
000110 5c ac c3 be df d0 7f be 33 8c 41 3d 83 42 99 3e
       -0.38217437 -0.24982022 0.047252845 0.29933557
000120 53 9b ce be 98 63 b5 3e d7 32 62 3e 16 20 ac 3e
       -0.40352878 0.35427547 0.22089706 0.3361823
000130 f3 d7 a9 be a0 1f b8 3e 8f e1 6d bd b0 2b 4c be
       -0.3317257 0.35961628 -0.058076438 -0.1993854
000140 02 b6 bf 3b 7e 57 ab 3e 2d 3a bd 3e 44 af c3 3e
       0.0058505544 0.3346519 0.36958447 0.38219655
000150 a9 a2 06 3e 35 a4 71 3e 7a 5d 4d be da e6 da bc
       0.13147987 0.23597796 -0.2005519 -0.026721407
000160 02 a9 7a bd c3 cc ba bd 93 fb 76 3e ee a2 15 be
       -0.061196335 -0.091210864 0.24119405 -0.14612934
000170 9d 9e 20 3e 55 09 cb be 24 d9 49 3e 17 b1 46 3d
       0.15685506 -0.39655557 0.19711739 0.04850873
000180 1d 31 c7 be 7c 0f a2 be db f6 87 be b6 22 11 3d
       -0.38904658 -0.3165244 -0.26555523 0.035433494
000190 d2 9b 7e 3e 17 1a d9 3e fc ea c0 3e 10 13 6c 3e
       0.24864128 0.42402717 0.3767928 0.23054147
0001a0 66 8e da 3e 9c 12 28 be dc e6 73 bd 2a 66 a9 3e
       0.42686766 -0.16413349 -0.059546337 0.33085757
0001b0 41 fe cd be 29 1b 89 3e bf 27 8f be 66 c5 b1 bd
       -0.40233043 0.26778534 -0.2796001 -0.08680229
0001c0 70 c5 84 be 91 bb 03 3e 0a a3 a3 be c5 f0 d1 3e
       -0.25931883 0.1286452 -0.31960326 0.41004005
0001d0 e3 2c c0 be 05 c8 81 be 61 ef 6f 3e ad 6e 6e 3d
       -0.37534246 -0.25347915 0.2343116 0.058211017

layer.2.weight f4 [1, 120]
000000 33 9b a3 3d db 9b bc 3d 85 a0 b4 3d d6 1d 58 3d
       0.07988586 0.092094146 0.08819679 0.05276283
000010 7d 58 90 bd 22 a5 2e 3c a2 30 a6 3d 50 80 86 3c
       -0.07048128 0.010659488 0.08114745 0.016418606
000020 51 08 46 bd 39 5b c0 bb 91 d8 00 be ef 11 35 bd
       -0.048347775 -0.0058702496 -0.12582614 -0.044206556
000030 eb 41 3e 3e a0 d8 04 3c c6 11 57 3d 4c cc b0 3c
       0.18579833 0.008108288 0.052507184 0.021581791
000040 88 22 cc 3d 04 66 59 3d c9 d2 f7 3c 4d 2d 9c 3c
       0.09967524 0.053075805 0.030251877 0.01906457
000050 46 2a 9b 3c 02 ff 93 3d 08 d7 93 3d c3 c5 c9 3c
       0.018941056 0.07226373 0.07218748 0.024630433
000060 27 9b c1 3c 85 8a 80 bd 47 76 a9 3d d4 ac db 3c
       0.023633553 -0.062764205 0.08274513 0.02681581
000070 a9 be c8 bb 28 f3 4e 3d b5 13 d1 3d 34 b1 76 3d
       -0.006126244 0.05052486 0.10208837 0.060227588
000080 b5 26 28 3d 1c 4b de bd 0b 1e 5f 3d 73 5f 9d bb
       0.04105254 -0.1085417 0.05447201 -0.004802638
000090 50 4e 8b bd 74 2c 6f 3d db fc b0 3c 22 36 0e 3d
       -0.06802046 0.058392003 0.021604946 0.034719594
0000a0 ea 73 81 3d f3 35 e1 3c 7d 56 8a 3d 0a 5b b4 bc
       0.06320937 0.027491545 0.067547776 -0.022016067
0000b0 c2 9f 8b bd e2 15 6f 3d 4d f3 21 bd 20 b6 bc 3d
       -0.06817581 0.05837048 -0.03953867 0.09214425
0000c0 be ee 24 3e b8 01 6a bd a6 c2 de 3c 52 76 12 bd
       0.16106698 -0.057130545 0.027192425 -0.03575737
0000d0 2e e5 8a bd dc e0 56 bd ee 6f e5 3d 88 b0 34 bd
       -0.06781994 -0.052460536 0.112029895 -0.044113666
0000e0 16 98 bc bc 42 27 d4 bb fb c6 de bd 72 57 9b bd
       -0.023021739 -0.0064744065 -0.10877796 -0.07585038
0000f0 c8 00 dd 3c c3 c6 3b 3d 3e 26 b3 bd 22 5b e9 bd
       0.026977912 0.04584385 -0.087475285 -0.11394335
000100 de e8 95 3d 5a 52 f4 bc 15 8b cf bc 9c 34 51 bc
       0.073198065 -0.029824425 -0.025334874 -0.012768891
000110 b2 10 df 3d 6a 7d 2f bc ab ef 69 3d 8f 06 fc bc
       0.10891856 -0.010711053 0.05711333 -0.030764846
000120 01 1e 8b 3c 05 3f e2 bd 15 69 93 bd 64 39 af 3c
       0.01698208 -0.11047176 -0.07197777 0.02138967
000130 6e d7 54 bc a2 0e 9d 3d d4 48 6c bd a9 e8 9d bb
       -0.012990816 0.076688066 -0.05768664 -0.004818995
000140 93 df e1 bc f6 c8 6f bd 36 7d cf bd a2 03 3b bd
       -0.027572429 -0.05854126 -0.10131304 -0.04565776
000150 c0 51 17 bd bc 9d bf 3c 60 2c 5a bc df e9 be bd
       -0.036943197 0.023390643 -0.013316244 -0.09321951
000160 2a 52 a0 3c 79 df b8 bd 44 99 ee bc a8 46 6e bd
       0.019570429 -0.09026999 -0.029125817 -0.05817285
000170 04 61 7d bd 83 48 20 bb 5d b9 6a 3d d8 9c 8e bb
       -0.0618601 -0.0024457283 0.057305682 -0.0043521933
000180 66 55 d7 bd be 9b bf bd 8a 6d f4 3c ee 06 f8 3b
       -0.10514335 -0.09355877 0.029837389 0.0075691855
000190 53 c1 bf 3c 11 6c 7a 3d d1 95 80 bc 96 74 ab bc
       0.023407614 0.061138216 -0.015696438 -0.020929616
0001a0 a6 df a7 bd 4b 64 36 3d bf ff 89 3b e9 66 13 bc
       -0.081969544 0.04452924 0.0042113955 -0.008996704
0001b0 35 b9 ad 3d db e2 9f bd 5c 0d 40 bd f8 23 96 bd
       0.08482591 -0.07806941 -0.04688774 -0.07331079
0001c0 32 0c 1b 3c 12 62 4f 3d 8f 2b 06 3d c5 5d e3 bc
       0.009463357 0.050630637 0.032756384 -0.027754674
0001d0 f5 b9 e4 bb cd 9f 2f 3c 7e 69 d9 3c 30 60 ef 3c
       -0.0069801756 0.010719252 0.02653956 0.02922067

0.weight f4 [80, 6]
000000 67 f7 f8 c2 7d 7c 53 c1 4e 60 de 42 b1 56 a7 41
       -124.48321 -13.217893 111.188095 20.91733
000010 97 2f e7 41 5b 99 c5 3f 46 8d 92 c3 50 6c 48 42
       28.898237 1.5437425 -293.1037 50.105774
000020 0a 63 1f 42 03 e5 4e c4 2e 0e ed c2 05 c6 1a c0
       39.846718 -827.5783 -118.527695 -2.4183362
000030 91 05 6a 42 13 c2 bf c0 b2 d3 87 c3 a5 2e a1 c1
       58.505436 -5.9924407 -271.65387 -20.147776
000040 ed 3b 68 c2 fc a0 2d c0 ce 9c d9 c1 2d 30 9f 40
       -58.05852 -2.7129507 -27.201565 4.974631
000050 2e 66 bf c1 2d 5a 01 c1 94 1d c2 40 49 d6 c2 3e
       -23.924892 -8.084516 6.0661106 0.38054112
000060 33 32 05 c2 f5 ef 7e 3f fe 95 60 41 90 01 d3 41
       -33.299023 0.99584895 14.036619 26.375763
000070 cd 46 3c 41 00 2b 73 3e 45 42 cb c1 04 6a 43 c0
       11.767285 0.23746872 -25.407358 -3.0533457
000080 ef c7 9d 41 be 8d 5e 41 bd 6f 97 41 78 06 b2 3e
       19.722624 13.909605 18.92956 0.3477056
000090 1e 17 a1 44 1d 31 98 c2 b2 a1 63 c4 f0 e3 8b c4
       1288.7224 -76.095924 -910.5265 -1119.123
0000a0 63 87 48 c4 48 1a b7 c1 e3 57 ea c2 02 a3 ed 41
       -802.1154 -22.887833 -117.17165 29.704594
0000b0 4a 10 e2 c1 96 d0 c0 c2 d0 cc c1 c2 ce e3 06 c0
       -28.257954 -96.407394 -96.900024 -2.107654
0000c0 d8 ac 5a 43 2b ed ac 40 17 25 64 c3 9b b4 64 c1
       218.67517 5.403951 -228.14488 -14.294093
0000d0 b5 1b a3 c2 08 30 3c c0 77 1d a9 c2 f8 8b 58 c0
       -81.554115 -2.9404316 -84.55755 -3.383543
0000e0 8b 8f d7 41 c6 21 21 42 21 86 06 42 64 c3 cc 3e
       26.94509 40.28298 33.630985 0.3999282
0000f0 c2 8e 95 42 bb c5 88 40 c2 34 e2 42 78 1b 0a c3
       74.778824 4.274137 113.10304 -138.1073
000100 b0 fa af c2 96 5c d9 bf b8 84 42 c2 34 46 0d 3f
       -87.989624 -1.698138 -48.62961 0.55185246
000110 39 55 84 c0 99 51 c2 c1 e3 5f 7e 41 7b 62 f5 bc
       -4.135403 -24.289843 15.89841 -0.029954186
000120 20 29 71 c3 9f c3 9a 42 5a d8 28 c3 a6 72 26 c4
       -241.16064 77.38207 -168.84512 -665.7914
000130 4b 6c ac 43 86 aa c7 40 bd 7e 38 42 82 29 0a c0
       344.84604 6.239566 46.123768 -2.1587834
000140 a4 28 fb 42 98 59 3e c2 74 ee 34 41 7a b4 4d 3f
       125.57938 -47.587494 11.308216 0.8035351
000150 72 ac 25 42 8c 57 bd 3f 40 26 2c 42 c5 34 71 43
       41.418404 1.4792342 43.037354 241.20613
000160 c8 74 3a 42 6a 83 c5 3f 0a b3 70 41 af 5c a2 40
       46.614044 1.5430729 15.043711 5.073814
000170 45 37 a0 c2 79 65 b1 42 f6 ff 3f 42 6d 8a ad 3f
       -80.10795 88.69819 47.99996 1.3557869
000180 9d ca 27 c3 b6 0a 77 40 58 a4 ac c3 21 99 16 c2
       -167.79146 3.8600287 -345.28394 -37.64954
000190 43 5a 32 42 ba 05 be bf ab 02 d2 c3 80 77 ac 41
       44.588146 -1.4845498 -420.02084 21.55835
0001a0 cb 1b 04 c3 eb ed 86 43 52 4a d6 42 51 b8 e7 3f
       -132.10857 269.85873 107.14516 1.8103124
0001b0 a0 82 ff 3f 81 df cd bf 27 7f 5f bf b5 a7 85 41
       1.9961739 -1.6083833 -0.87303394 16.706888
0001c0 d4 58 9c c1 fe 41 c4 be ea a1 2a c3 d8 76 0f c1
       -19.543373 -0.38331598 -170.63248 -8.966515
0001d0 a7 8a 4f c3 f7 68 d9 c3 b1 72 0a c3 12 b2 4e c0
       -207.54161 -434.82004 -138.44801 -3.2296185
0001e0 3a 79 1a c3 5d 89 47 bf 7f 0e 72 c1 06 01 c9 42
       -154.47354 -0.77943975 -15.128539 100.502
0001f0 27 4e a2 42 80 65 0d 40 43 7b c0 42 1b ae 9c 3f
       81.15264 2.20932 96.240746 1.2240633
000200 c1 5f 0d c2 eb aa 3e c1 ad c0 37 c2 b0 38 a2 bf
       -35.34351 -11.916728 -45.93816 -1.267355
000210 82 a8 7f c1 f9 b8 dc c1 a6 8d 8f c2 34 95 c4 42
       -15.97864 -27.590319 -71.77666 98.29141
000220 54 b1 22 43 19 65 08 40 57 79 5f 42 97 6f de c1
       162.69269 2.1311705 55.868496 -27.804487
000230 ce 00 20 c2 b6 92 46 43 ba d1 ef c2 f6 7d 77 c0
       -40.000786 198.57309 -119.90962 -3.867063
000240 c5 37 17 41 62 63 81 bf 5a 20 16 40 c5 49 61 40
       9.451116 -1.0108454 2.3457246 3.5201275
000250 ba 1a 25 c0 00 e3 10 bc c0 ca 8d c2 7c 13 4d 41
       -2.5797563 -0.0088431835 -70.895996 12.817257
000260 39 55 bf 3e 8b 3e 9d c3 56 b2 d4 41 05 ed af 3f
       0.37369707 -314.48862 26.587078 1.3744208
000270 67 88 23 c4 9e cb 56 c3 24 a5 22 45 ef f4 22 44
       -654.1313 -214.79538 2602.3213 651.8271
000280 d2 f7 2d 44 36 24 e6 41 e5 ae 26 c3 1d 93 1a 40
       695.8722 28.767681 -166.68318 2.415229
000290 1a 6d 6c 42 aa d8 ac 42 3f 78 42 c2 2f e4 9c bf
       59.106544 86.42317 -48.617428 -1.2257136
0002a0 c0 5e 67 c2 01 d8 b0 bd 19 1d 67 c2 62 d0 02 42
       -57.84253 -0.086349495 -57.778416 32.7035
0002b0 88 8d bc c2 bf be ba bf f6 2d 18 43 64 a2 8a 3f
       -94.27643 -1.4589461 152.17953 1.0830808
0002c0 9f f3 e2 41 f3 5b 1f 43 cb 52 32 c2 a4 00 99 bf
       28.368956 159.35918 -44.580853 -1.195332
0002d0 df 1f c6 42 12 bb 25 c2 c3 00 a4 43 b3 0d d4 41
       99.06225 -41.432686 328.00595 26.50669
0002e0 63 07 27 42 60 32 0b 40 37 ed cb c2 55 86 87 c2
       41.757214 2.1749496 -101.96331 -67.76237
0002f0 9a f6 2e 43 1b 91 5a c3 92 ce 9f c2 88 02 3f c0
       174.96329 -218.56682 -79.90346 -2.9845295
000300 41 9b 68 c3 b3 f4 f4 c2 33 fd 7a 44 42 97 67 43
       -232.60646 -122.47793 1003.95624 231.59085
000310 35 6a 39 43 79 75 1a 41 ae 22 4a 42 12 a9 43 c0
       185.41487 9.65368 50.533867 -3.0571942
000320 9d 47 88 c2 a7 be c1 c2 8a 3d 41 c2 87 16 c4 bf
       -68.13987 -96.87237 -48.310097 -1.5319375
000330 2c 27 c0 c1 bd cb 67 c0 f3 81 7e c1 d2 c8 c1 40
       -24.019127 -3.6218102 -15.906726 6.055764
000340 60 70 21 41 03 0b f4 bc f1 e2 0e c3 15 09 38 bf
       10.089935 -0.029790407 -142.88649 -0.7188886
000350 1a bf c7 c2 6a 38 55 c3 88 d6 73 42 f4 5c 89 3f
       -99.873245 -213.22037 60.959503 1.0731492
000360 7a c8 00 c1 0d f0 de be 95 a9 1d c1 db 25 87 c3
       -8.048944 -0.4354252 -9.853902 -270.29575
000370 9d 16 66 c2 3c 78 dd bf 13 56 86 42 4c 24 03 c2
       -57.522083 -1.7302318 67.16811 -32.785446
000380 3b b6 2b c1 11 d2 89 42 3d 7f a3 3e ae fd e8 3e
       -10.73199 68.910286 0.31933013 0.45506042
000390 06 37 4f 42 01 b2 85 c1 08 54 05 42 86 fb 3b c2
       51.803734 -16.711916 33.33206 -46.99563
0003a0 62 df be c2 60 ec 0b c0 bd 4e a0 41 72 db 7c bf
       -95.436295 -2.1863022 20.038446 -0.98772347
0003b0 49 04 0a c1 e4 2c 8b 40 f2 cf 3a c1 96 83 81 be
       -8.626046 4.34923 -11.675768 -0.25295705
0003c0 d6 3f 90 c3 c2 59 c6 41 5e b6 d5 c2 02 c8 d6 c2
       -288.49872 24.793827 -106.856186 -107.39064
0003d0 f2 a9 11 43 f6 00 20 40 d1 e0 ae 42 bc c4 9b c0
       145.66385 2.5000587 87.439095 -4.8677654
0003e0 f6 9f af 41 5d ba e2 bf 7f e9 de c0 45 be 85 be
       21.953106 -1.7713124 -6.966003 -0.26121727
0003f0 a7 2d a9 c2 ab 15 a2 c0 b3 ce 13 43 77 93 36 c4
       -84.589165 -5.065145 147.80742 -730.30414

0.bias f4 [80]
000000 2b da dd 3f d3 4e aa c0 04 c1 3c c0 bd 75 17 3e
       1.7332205 -5.322122 -2.9492807 0.14791007
000010 54 85 f2 3e f2 9e 2e 3f 66 1b 20 c2 3c 33 a1 c0
       0.47367346 0.6821128 -40.026756 -5.037504
000020 f8 0a 79 c0 f5 99 9c 3f 9a 49 92 c0 58 0a de 3e
       -3.8912945 1.2234484 -4.5714846 0.43367267
000030 b8 95 80 41 5e fd a0 3e ef d6 33 40 b5 b9 29 40
       16.073105 0.31443304 2.8099935 2.6519597
000040 3d c4 e8 3f ef e5 a9 40 3e 85 9e bf 87 1c cf c0
       1.8184887 5.309318 -1.2384412 -6.4722323
000050 26 fd 8f 40 3b 15 24 c0 3d fb d3 40 d2 86 de c0
       4.499652 -2.5637958 6.6244187 -6.9539576
000060 45 ed c0 3d 72 7f fa 3f e2 87 09 42 39 1d 34 c0
       0.094202556 1.9570143 34.382698 -2.8142836
000070 b5 48 65 c0 7a e7 3c c0 6c 35 04 40 0f 85 be c0
       -3.5825627 -2.9516282 2.0657606 -5.9537425
000080 e0 3c 13 41 55 6d 15 c0 14 88 37 3f 24 69 65 40
       9.202362 -2.334798 0.71692014 3.5845423
000090 2c 2e 3c c0 dd cc f3 3b 46 b0 95 c0 a2 fc 08 bf
       -2.940318 0.007440193 -4.6777678 -0.5351049
0000a0 78 9c d9 40 1b d7 ec be 7e c9 e9 bf a6 57 11 42
       6.80035 -0.46257862 -1.8264616 36.335594
0000b0 88 58 3f bf e4 ea 13 41 98 60 e3 be f5 ea 78 40
       -0.7474446 9.244846 -0.44409633 3.8893406
0000c0 32 b8 49 c1 0e 5a 74 c0 cf d0 ec c0 ac a8 b7 c0
       -12.60747 -3.8179965 -7.4004893 -5.73934
0000d0 e8 9d 60 40 46 18 f2 bd 35 92 3c be dc 72 84 3f
       3.5096378 -0.11821036 -0.18415149 1.0347552
0000e0 a2 78 c7 bf 64 02 d4 c0 03 72 82 c0 f5 3c 7d 41
       -1.5583689 -6.625292 -4.0764174 15.827382
0000f0 f6 c9 d0 40 01 b4 06 42 9f f2 b9 3f d2 1e b1 be
       6.5246534 33.675785 1.4527167 -0.34593827
000100 e2 22 b0 bc e9 2a 99 3f 16 83 16 be c2 34 c7 c0
       -0.021501008 1.196622 -0.14698443 -6.22519
000110 4c 8a a3 c1 39 05 45 3e 88 cd c3 40 95 75 0a 41
       -20.442528 0.19240274 6.1188393 8.653707
000120 5b c9 08 41 14 71 6e c0 d9 dd 9b 40 bf ab 99 bf
       8.549159 -3.7256517 4.870831 -1.2005538
000130 42 e4 1b c0 d1 a3 51 be b9 d0 f6 be e7 24 82 bf
       -2.4358068 -0.20472647 -0.48206118 -1.0167512

2.weight f4 [1, 80]
000000 04 7d de c3 9c c0 0d 44 3a ef 75 44 87 f2 cf c3
       -444.97668 567.0095 983.7379 -415.89474
000010 50 bc c9 43 66 41 08 c4 0e d9 ad c3 fd ea b2 43
       403.4712 -545.02185 -347.69574 357.83585
000020 bf 0f b4 43 f6 3d ed c3 d3 66 a6 c3 89 04 e2 c3
       360.12302 -474.48407 -332.8033 -452.03543
000030 4b 77 9a c3 e2 ce 26 c3 aa b2 0c c4 5b 26 4a c4
       -308.93198 -166.80814 -562.7916 -808.5993
000040 85 ab 90 c3 1f f5 e5 43 f2 c3 e8 43 8b bf 1b c4
       -289.34 459.915 465.53082 -622.99286
000050 bf 24 0a c4 60 c8 e2 43 c1 c0 66 c3 d6 8e b2 43
       -552.57416 453.56543 -230.75294 357.1159
000060 3d 2f e3 43 ed 4e 25 44 ac a9 8c 43 9b 11 9b c3
       454.36905 661.2332 281.32556 -310.13754
000070 45 89 19 44 92 1a 04 c4 24 84 53 c4 30 7e b8 c3
       614.14484 -528.41516 -846.0647 -368.98584
000080 47 ee 51 44 c1 36 f6 43 34 4b e6 c3 95 d8 15 44
       839.7231 492.42776 -460.58752 599.3841
000090 bd 25 30 c4 49 b4 76 c3 60 d6 fd 43 f8 07 d6 43
       -704.58966 -246.70424 507.6748 428.06226
0000a0 19 68 0c c4 4a 1d ef 43 81 e8 22 c4 4e 30 db c3
       -561.6265 478.22882 -651.6329 -438.37738
0000b0 90 f7 ca c3 f5 64 25 44 ce de 05 44 14 b1 13 c4
       -405.93408 661.57745 535.4813 -590.76685
0000c0 06 a2 64 c4 7c 64 5b 43 aa 44 2c c4 2c 12 22 43
       -914.5316 219.39252 -689.0729 162.07098
0000d0 85 d4 b4 c3 d0 18 12 44 18 21 58 c4 7c ac e3 43
       -361.6603 584.3877 -864.5171 455.34753
0000e0 0b 34 1b 44 25 ca 35 c3 61 2b 59 c4 c8 40 6c c4
       620.8132 -181.78963 -868.6778 -945.0122
0000f0 20 f8 50 c4 05 04 8a c1 57 81 35 c4 64 8e 96 c3
       -835.87695 -17.251963 -726.02094 -301.11243
000100 73 cc d9 43 eb 04 b1 c3 3e 64 5f 44 9a 25 b8 43
       435.59726 -354.03842 893.5663 368.29376
000110 52 84 35 c4 67 ad 3f 43 9c 05 93 c3 31 f9 e4 c3
       -726.0675 191.67735 -294.04382 -457.9468
000120 a1 a9 ed 43 31 f0 2e 44 2f ed 94 c3 39 a7 e1 43
       475.32523 699.753 -297.853 451.30643
000130 64 5d 40 43 ec df 22 c4 24 2b ab 43 cd 59 72 c4
       192.3648 -651.4988 342.33704 -969.40314

0.weight f4 [80, 6]
000000 06 cf ef c0 86 18 f6 3f 45 22 1b 42 ba 95 03 42
       -7.4940214 1.9226234 38.783466 32.896217
000010 7b 28 0b 41 95 59 03 3f a5 7a 41 c1 d1 52 3d c1
       8.697383 0.51308566 -12.0924425 -11.832719
000020 74 5e fa 42 d4 d6 c9 c2 65 f2 e5 41 24 1b 81 3f
       125.18448 -100.919586 28.743357 1.0086408
000030 62 21 2f 43 fa f0 22 c0 3c 4d 7c c0 a1 37 81 c1
       175.1304 -2.545958 -3.942214 -16.152163
000040 ef bb 6e c2 ad 90 c3 bf d5 e3 f4 c2 bc fc 5b c0
       -59.68353 -1.5278527 -122.444984 -3.4373007
000050 77 85 39 43 4c f1 44 c2 1e d1 8e 42 68 62 20 40
       185.52135 -49.23564 71.40843 2.5060062
000060 91 3c e6 be 7b bf 29 bf 78 d3 b6 c1 54 3a a5 41
       -0.44968084 -0.663078 -22.853256 20.65348
000070 7b 89 62 c0 c0 8d 55 be 03 26 76 c2 0b f8 c4 40
       -3.5396411 -0.20854855 -61.53712 6.1552787
000080 5e d8 54 42 c3 f5 f7 41 a3 09 02 42 cd bb 7e 3f
       53.211296 30.995 32.50941 0.9950531
000090 2e 9f 14 42 50 be 13 bf 09 ac 0e c1 56 f9 7e c0
       37.15545 -0.5771227 -8.917001 -3.9839683
0000a0 51 24 9d c1 2a 2e 10 bf 62 96 8f c1 b7 64 a5 bd
       -19.642733 -0.5632044 -17.94843 -0.080758505
0000b0 17 bf 5b 40 69 3e 02 41 df 4f 1f 41 36 84 52 3e
       3.4335382 8.140237 9.957 0.20558247
0000c0 be f8 13 42 35 1f a1 bf a7 12 0f c2 99 f7 19 c1
       36.992912 -1.2587649 -35.768215 -9.622949
0000d0 8c 78 c1 c1 c5 8a 50 bf 1f 75 ac 40 e1 2a 97 3f
       -24.18386 -0.81461746 5.389297 1.1809961
0000e0 72 47 96 41 89 ba 74 42 f5 ba b9 40 af 56 fa 3e
       18.784885 61.182163 5.804072 0.4889426
0000f0 46 5e f5 c3 93 0f 8e 41 58 ad 15 c3 29 e8 6d 42
       -490.7365 17.757605 -149.67712 59.47672
000100 62 81 1c 43 2e e4 21 40 49 53 5e 42 3b a2 85 41
       156.5054 2.529552 55.581333 16.704214
000110 bd 46 b9 40 cc 22 1e c1 5b 9e e2 41 d7 9b 3e 3f
       5.789885 -9.883495 28.327322 0.7445654
000120 6d 8a e9 41 9f fd 1f 3f d2 9f fd c1 52 3e 46 c2
       29.19259 0.6249637 -31.703037 -49.56086
000130 bf c4 99 c1 6a ff 17 bf fa c3 c0 41 74 87 ef 3e
       -19.221067 -0.59374106 24.095692 0.4678303
000140 30 36 55 c1 ae bf 7b c0 07 75 08 c1 78 2c b7 bd
       -13.325729 -3.9335742 -8.528571 -0.089440286
000150 46 97 1a c1 2c 5c 14 41 1d 34 f1 40 b2 f7 d2 41
       -9.661932 9.272503 7.5376115 26.370945
000160 e6 47 0b 42 cc 92 67 3f 80 b2 f8 c1 a0 70 aa 3f
       34.820213 0.9045837 -31.087158 1.331562
000170 48 de 4e bf fd cc 55 41 24 07 03 41 50 93 23 3e
       -0.80807924 13.362546 8.189243 0.15974164
000180 7e ed 99 41 4d 77 48 c2 b0 01 a0 41 6d 85 47 c2
       19.240963 -50.116505 20.000824 -49.8803
000190 75 38 6e c2 12 14 88 bf 8c c2 0d 42 07 98 08 c0
       -59.555134 -1.0631125 35.439987 -2.134279
0001a0 77 ba 4f 40 88 33 1d c1 de b5 c0 c2 12 33 88 bf
       3.245756 -9.825081 -96.35521 -1.0640585
0001b0 c5 be 9f 42 44 88 af c0 3f 8c a6 40 d9 65 10 c3
       79.8726 -5.485384 5.20462 -144.39784
0001c0 30 8b a4 c1 1c b7 2a bf f5 68 85 3f 4e 11 56 c0
       -20.567963 -0.6668565 1.0422655 -3.3448062
0001d0 d2 2b 6a 42 c5 b6 97 c1 d6 93 84 40 30 03 cf 3e
       58.542793 -18.964243 4.1430464 0.4043212
0001e0 fe 07 76 40 31 7e b4 bf bd a0 f8 42 0e 3d 41 41
       3.8442378 -1.410101 124.31394 12.077406
0001f0 cf 38 32 42 4f e3 cf 3f 4e 06 40 41 5b ea 07 bf
       44.555477 1.6241244 12.001539 -0.53091973
000200 47 e2 07 c1 f5 52 33 c0 fe 9b d1 c0 72 a1 a1 be
       -8.4927435 -2.8019383 -6.550292 -0.31568485
000210 cf 6e d8 c1 b3 5f c6 3e 4a 30 e5 41 b2 64 35 42
       -27.054106 0.38744888 28.648579 45.348335
000220 d5 6b 59 41 b4 7b 06 3f 2e 58 32 c2 ab 78 1a c0
       13.588826 0.52532506 -44.586113 -2.413615
000230 13 c0 9d 42 b3 bc 19 42 a2 ee 27 42 34 e0 a9 3f
       78.875145 38.434277 41.98304 1.3271546
000240 9c b9 79 42 ea 9b ac 3f ea 09 6c 41 e6 86 f1 c0
       62.43126 1.3485081 14.75242 -7.547717
000250 ed 38 c9 c1 9a 15 c7 be 67 c5 03 42 0e 1d 52 be
       -25.152796 -0.38883668 32.942776 -0.20518896
000260 8a d9 75 40 35 53 2b bf a2 bb 3c c1 24 37 a0 bd
       3.8414025 -0.6692384 -11.795809 -0.07823017
000270 39 84 7a 42 97 bf d8 c0 f0 6f 0d 42 a8 a0 63 c2
       62.629124 -6.7733874 35.359314 -56.90689
000280 ea 86 84 c1 08 5c 31 be 3b 59 1b 42 1a 06 55 be
       -16.565876 -0.17320263 38.83714 -0.20803109
000290 b1 69 1b 43 b7 98 0e c2 61 48 80 41 2b 75 3a 3f
       155.41286 -35.649136 16.035341 0.72835034
0002a0 bc 2d e5 41 a1 28 d9 40 72 5d 92 c2 21 11 d6 c0
       28.647331 6.7862096 -73.18251 -6.689591
0002b0 d0 94 a7 c1 23 41 37 bf 84 56 15 c2 cd f6 05 c1
       -20.947662 -0.71583766 -37.334488 -8.372754
0002c0 ff d2 e7 41 ba cb 7d 42 d2 79 4e 41 c0 58 06 3f
       28.978025 63.44895 12.904741 0.5247917
0002d0 1d d3 9e 42 7e d6 22 be a2 ae 39 c2 1d 17 b5 c0
       79.41233 -0.15902135 -46.42054 -5.6590714
0002e0 d0 2b 19 c2 1d ae 9e bf 2d 69 81 c1 52 77 04 40
       -38.292786 -1.2396885 -16.176355 2.0697827
0002f0 7b d8 90 c1 44 d4 4e c1 9d 07 9e 40 10 95 c6 bd
       -18.105703 -12.926823 4.9384294 -0.096964
000300 98 51 fa bf e3 cc 88 3b d5 1a 4d 42 df 25 77 41
       -1.955615 0.004174815 51.276203 15.446746
000310 61 c3 13 41 c7 cc fe 3e 42 5b 8c c2 6d 4b 69 c0
       9.2352 0.49765608 -70.17824 -3.6452286
000320 71 bf 2e 42 f7 8b a2 40 4d bd 11 42 23 93 89 3f
       43.686954 5.0795856 36.434864 1.0748028
000330 7d 41 5c 42 75 a4 81 41 e0 54 7b 41 98 af 76 c2
       55.063953 16.205301 15.708221 -61.67148
000340 58 2a 4a c2 ea a6 7a bf 95 7d 60 c2 b0 db f6 41
       -50.54135 -0.9791094 -56.12264 30.85727
000350 83 0c 41 42 fb 49 fa c2 02 ab b1 c2 a6 f2 ad bf
       48.26222 -125.14449 -88.834 -1.3589675
000360 2c 78 90 c2 e1 b9 2b 41 ed c5 b5 42 24 c1 80 c1
       -72.23471 10.732881 90.88657 -16.094307
000370 ef f4 08 42 f8 70 9f 3f e1 5f 6a 43 bd 44 1f 41
       34.239193 1.245635 234.37453 9.954282
000380 d2 f1 74 43 a7 d6 e0 c0 12 a1 af c0 7a cd 22 3f
       244.94461 -7.0262027 -5.488412 0.6359478
000390 64 93 c6 c1 30 3e 32 40 c1 89 0b c0 87 10 e4 41
       -24.821968 2.7850456 -2.1802828 28.50807
0003a0 fe 5b 09 41 e8 93 c3 3e df 80 0e c2 2a ef 93 40
       8.584959 0.3819878 -35.62585 4.622945
0003b0 55 9c 3c c2 7c ba 0e 40 f6 5c 6e 3e 2b 87 9e be
       -47.152668 2.230132 0.2327765 -0.309625
0003c0 6a 3c 84 c1 25 b3 2a 3e 82 aa 1b 41 1f 59 d3 41
       -16.5295 0.166699 9.729128 26.418516
0003d0 91 df 2c 41 66 3a 9c 3e 79 f7 b4 41 41 4b 6d 40
       10.804582 0.30513304 22.620836 3.7077181
0003e0 1e 26 21 c3 18 50 66 c1 86 44 73 c2 2b ef 12 c0
       -161.1489 -14.394554 -60.816917 -2.2958477
0003f0 6c 62 b3 41 fd fe f3 bf 85 ce 13 40 c2 e5 c9 c0
       22.423058 -1.9062191 2.30948 -6.3092966

0.bias f4 [80]
000000 63 f7 10 3f 9b 70 ba 3f 25 9d 4a c0 e3 57 5d 40
       0.5662748 1.4565614 -3.1658413 3.4584892
000010 69 28 8e bd a6 89 bc 3f 1b ea 90 bf ac fc dc 3e
       -0.069413014 1.4729507 -1.1321443 0.43161523
000020 a0 c8 92 bf 8f 43 0c 3f c1 14 f2 40 cc 77 c1 3f
       -1.1467476 0.54790586 7.5650334 1.5114684
000030 8e 8a 5b bf e3 f3 f0 be 7a 2a ff 3f a4 d0 1e 3f
       -0.8575829 -0.4706107 1.9934838 0.6203711
000040 4a f4 3e c0 1a eb 55 c0 f1 5f b7 bf 7f ba bc 3d
       -2.9836602 -3.3424745 -1.4326154 0.09215259
000050 c6 d7 fb 3f 00 e8 57 be 91 99 23 3f c4 7c 04 40
       1.9675224 -0.21084595 0.639062 2.070115
000060 3c d2 a1 bf fa 4b 24 bf b6 61 23 bf 6b d3 8e 3e
       -1.2642283 -0.6417843 -0.6382097 0.27895674
000070 dc 34 a4 bf 29 6b 32 3f d5 f3 fb bf c7 d0 5c 3e
       -1.2828631 0.69694763 -1.9683787 0.21564017
000080 8b 2d 95 3e 43 14 ca 3f a0 36 06 c0 4d 96 87 c0
       0.2913631 1.5787433 -2.097084 -4.2370973
000090 25 7d c3 3f 14 2c 45 bf ac 91 f1 3e b4 54 74 3e
       1.5272566 -0.7702038 0.4718145 0.23860437
0000a0 14 59 0c 3f ec b4 4c c0 37 ad 08 bf 24 ab 2c c0
       0.5482342 -3.1985426 -0.53389305 -2.6979456
0000b0 a9 b9 9d be bc 33 fd bf 63 1e 98 bf 29 c6 8e 41
       -0.3080571 -1.9781413 -1.1884273 17.846758
0000c0 22 c7 9a bf 29 c7 ca 3e 2e 8d 2a 41 cc 81 81 bf
       -1.209202 0.39605072 10.659468 -1.0117736
0000d0 5c 00 fc 3e 3a 87 cb 3f d9 82 0a 3e e5 0e 5e 3e
       0.49219024 1.5900643 0.13526477 0.2168537
0000e0 76 da 14 bf c0 68 9c 3f 32 70 02 bf 3b 19 c4 bf
       -0.58145845 1.2219467 -0.50952446 -1.53202
0000f0 db 77 f9 bf bf dc ce bc 78 0e 0a 3e 8f 0b 9c bf
       -1.9489702 -0.025251744 0.13482082 -1.2191027
000100 48 e4 f7 3e 73 a7 90 bf bf 24 fb bf b7 61 b1 be
       0.48416352 -1.1301101 -1.9620589 -0.34644863
000110 7e f3 dc 40 bc af b9 bf 76 b4 9e be 2e 9b 2e bf
       6.904723 -1.4506755 -0.30997056 -0.68205535
000120 c5 10 28 41 9e 1f 68 40 f9 15 37 3f bc b7 ce 3c
       10.504094 3.6269298 0.715179 0.025234096
000130 e2 78 b7 3d c2 3b 02 c0 ec 61 99 c0 51 02 15 40
       0.089586034 -2.0348973 -4.7932034 2.3282664

2.weight f4 [1, 80]
000000 d9 c2 c0 42 50 28 b1 c2 da 6c 81 42 a6 c2 55 c2
       96.38056 -88.578735 64.7126 -53.440086
000010 b2 11 a1 c2 59 8c 03 42 ba 0f 20 c1 48 89 d1 c1
       -80.53456 32.88706 -10.0038395 -26.192032
000020 04 7d 5d 42 ea 85 14 c2 5c 9e 95 42 d6 fd d9 c1
       55.372086 -37.130775 74.809296 -27.248943
000030 38 b9 20 c3 f1 a4 e3 41 22 1d c2 42 b9 93 38 c1
       -160.72351 28.455538 97.0569 -11.536065
000040 df c8 f8 c2 07 37 80 42 b6 87 c6 c0 64 24 13 bf
       -124.39233 64.107475 -6.2040663 -0.574774
000050 78 8f 99 3f a1 5d 3c c1 d8 42 d8 c1 1c ab 88 c0
       1.1996908 -11.772859 -27.032639 -4.2708874
000060 e8 6b 93 c2 76 28 c4 bf 07 e9 c5 c2 1c d9 d4 c0
       -73.710754 -1.5324848 -98.95513 -6.6515026
000070 c0 06 0c c3 12 e0 78 41 8e 7c d7 41 61 e2 49 c2
       -140.02637 15.554705 26.935818 -50.471073
000080 fb a8 b0 c1 06 26 71 c2 51 04 3e c1 77 ca 90 c3
       -22.08251 -60.287132 -11.876054 -289.58176
000090 87 e0 a6 42 84 07 4e c2 d1 44 0e 41 ee 19 8f 41
       83.43853 -51.50734 8.891801 17.887661
0000a0 64 04 f3 c1 58 f6 e4 c1 ff ea fd 40 bd 4f 2a c2
       -30.377144 -28.620285 7.934936 -42.57787
0000b0 8e 82 9e c2 d7 33 d5 42 2e a1 11 c1 cf 32 46 c2
       -79.25499 106.60125 -9.1018505 -49.549618
0000c0 02 70 90 42 47 1c 78 41 8d 7a 14 40 97 c2 00 43
       72.218765 15.506904 2.31998 128.76012
0000d0 04 a8 eb 41 4b 03 39 c2 88 6a 2d c1 fe 58 df 40
       29.457039 -46.253216 -10.838509 6.9796133
0000e0 ec 43 ee c1 d5 5d d6 c2 04 83 12 bf ec 9f d5 c2
       -29.783165 -107.183266 -0.57231164 -106.81235
0000f0 27 e3 06 c2 6d fa 5e bf e1 d0 88 c2 fe 2b 8d 40
       -33.72183 -0.8710087 -68.40797 4.41162
000100 fe b9 08 43 98 2f c8 c1 f7 19 3c 42 1d bc c3 42
       136.72653 -25.02324 47.025356 97.86741
000110 96 dc 91 c2 2a bf b6 c1 cb 0f 0c c3 42 e0 f7 c2
       -72.93083 -22.843342 -140.06169 -123.938
000120 5c 26 0b c2 cd ae f6 41 21 da f6 c2 34 f0 6a c2
       -34.78746 30.835352 -123.42603 -58.734573
000130 88 5a 4d 41 5b fa 37 42 7c 36 6a 41 58 3a fc c1
       12.834602 45.994488 14.638302 -31.528488
