save-dir/newalgo.pt (torch, 87627 bytes, 9 tensors)

layer.0.weight f4 [120, 5]
0	0x3eb85623	0.36003217
1	0xbee2475c	-0.44195068
2	0xbe9bc792	-0.30425698
3	0xbd9d15c5	-0.07670168
4	0x3ec3a05b	0.3820828
5	0x3d8014b8	0.06253952
6	0xbece8195	-0.40333238
7	0x3bbc7020	0.005750671
8	0xbe2e4419	-0.17018165
9	0x3dfc00bc	0.123048276
10	0xbe394db5	-0.18096049
11	0xbe876ffa	-0.2645262
12	0x3d86c36f	0.06580245
13	0x3e817d29	0.25290802
14	0xbe97a1c2	-0.296156
15	0xbe404956	-0.18777975
16	0xbe6835e0	-0.22676802
17	0x3e89f1fa	0.26942426
18	0xbe52d453	-0.20588808
19	0x3e021ee6	0.127071
20	0xbb5dee9c	-0.0033864146
21	0xbdfede27	-0.12444716
22	0xbe8d0116	-0.2753989
23	0x3eaf77e4	0.34271157
24	0xbe637930	-0.22214198
25	0xbe9679ea	-0.29389888
26	0x3d04318c	0.032273814
27	0x3df1e73d	0.11811683
28	0x3ed7688f	0.4207196
29	0x3edab7cf	0.4271836
30	0xbe9c54c5	-0.30533424
31	0x3e55e25c	0.2088713
32	0x3ca528be	0.020161029
33	0x3ec61f51	0.38695768
34	0x3eaf39c5	0.34223762
35	0x3ed0a4dd	0.4075078
36	0x3d983f02	0.07433893
37	0x3b483d04	0.0030553946
38	0xbe4b790b	-0.19870393
39	0x3ed3a1d9	0.41334417
40	0x3cb101c4	0.021607287
41	0xbed0e077	-0.40796253
42	0x3e905f13	0.28197536
43	0xbe9b23b6	-0.30300683
44	0x3d9c2c6e	0.07625662
45	0x3ef5d8b4	0.48016894
46	0x3e20cf1f	0.1570401
47	0x3ed76339	0.42067888
48	0x3dce0a48	0.10060555
49	0x3de8d3ca	0.113685206
50	0x3ddb4579	0.1070661
51	0x3ecbe784	0.3982507
52	0x3d3b59a2	0.045739777
53	0x3e2a0a87	0.16605578
54	0xbe6a6810	-0.22891259
55	0xbed7dbc7	-0.42159864
56	0x3eb41efe	0.35179895
57	0x3ed08c28	0.4073193
58	0xbeb3f15a	-0.35145074
59	0x3ecd356f	0.4007983
60	0xbe3ad4b8	-0.18245208
61	0xbead8aab	-0.33894858
62	0xbbf71aa4	-0.0075410176
63	0xbec6d45d	-0.38833895
64	0xbe2d8188	-0.16943944
65	0xbe1fa9f3	-0.15592174
66	0xbe8f4374	-0.2798115
67	0xbec32284	-0.3811227
68	0x3ebc4689	0.36772564
69	0x3ec3f7b8	0.38274932
70	0x3ee1b956	0.44086713
71	0xbe22f9d9	-0.15915622
72	0xbe2c12ca	-0.16804042
73	0x3dfc853f	0.12330102
74	0xbeab299c	-0.33430183
75	0xbec6b168	-0.38807225
76	0x3eba9fcb	0.36450037
77	0x3ea266ff	0.31719205
78	0xbd85ddd3	-0.0653645
79	0xbe47b944	-0.19504267
80	0xbe7e5629	-0.24837555
81	0xbea20952	-0.31647736
82	0xbe3d28be	-0.18472573
83	0xbed0c35b	-0.40774044
84	0xbe9a6c65	-0.30160823
85	0xbeafcb5f	-0.34334847
86	0x3e5b90ef	0.21442007
87	0xbe98cd14	-0.29843962
88	0xbd456054	-0.04818757
89	0x3eecbb3c	0.46236598
90	0x3e8f0db9	0.27940157
91	0xbeb5bda4	-0.35496247
92	0x3eec5bd5	0.46163812
93	0xbe9f160a	-0.31071502
94	0x3eaeb176	0.34119767
95	0xbda4d5f4	-0.08048621
96	0xbe8bfb50	-0.27340174
97	0x3e44c3d6	0.1921533
98	0x3e543d58	0.20726526
99	0x3ece7ccb	0.40329584
100	0xbd494258	-0.049135536
101	0xbec2b7dc	-0.380309
102	0x3e71d53e	0.23616502
103	0x3e30af8f	0.1725447
104	0x3ecde533	0.40213928
105	0xbed1215d	-0.40845767
106	0xbead1205	-0.3380281
107	0xbebd6ac9	-0.36995533
108	0xbe5c5320	-0.21516085
109	0xbed42c86	-0.4144022
110	0xbed9e41d	-0.4255685
111	0x3e528f7d	0.20562549
112	0x3e681961	0.22665931
113	0x3de76225	0.112980165
114	0x3dd036b9	0.101666875
115	0xbe4d05d8	-0.2002176
116	0xbe8fcb90	-0.28084993
117	0x3ed992e3	0.42494878
118	0xbeb19f9e	-0.3469209
119	0x3e58135a	0.21101132
120	0xbe185bff	-0.14878844
121	0xbe9609fe	-0.29304498
122	0xbed2b1e7	-0.41151354
123	0xbea77065	-0.32702938
124	0xbe85d4d8	-0.2613895
125	0x3eae4d88	0.34043527
126	0xbeb7a2ce	-0.35866398
127	0x3e91bd66	0.28464812
128	0x3e475370	0.19465423
129	0x3eac3da2	0.33640772
130	0x3c37d351	0.011219815
131	0xbec31f36	-0.3810975
132	0x3d33f6c3	0.043936502
133	0x3ed25316	0.41079015
134	0xbe809d23	-0.25119886
135	0xbedafa0a	-0.4276889
136	0x3ea02e9f	0.3128557
137	0x3ead42b8	0.33839965
138	0x3e232ffe	0.15936276
139	0xbeaf912f	-0.34290454
140	0xbee7c5d4	-0.45268118
141	0xbd8cdc42	-0.06877948
142	0xbccd6d1e	-0.025076445
143	0xbe610068	-0.21972811
144	0xbe833510	-0.2562642
145	0xbed5b2ad	-0.4173788
146	0x3d81d175	0.06338779
147	0x3dfe87e1	0.124282606
148	0xbeab5315	-0.33461824
149	0xbeac3430	-0.33633566
150	0x3e212a7a	0.1573886
151	0x3dfb7b1d	0.12279341
152	0x3eb4888e	0.35260433
153	0xbe26fc07	-0.16307078
154	0x3e5af98b	0.21384256
155	0x3ed94d86	0.42441958
156	0x3e08fb11	0.13377024
157	0xbd522ebf	-0.05131411
158	0x3eb8b455	0.36075082
159	0xbe8bcd48	-0.27305055
160	0x3e00dbf9	0.12583913
161	0x3cef322a	0.029198725
162	0x3ecf29e4	0.40461648
163	0xbead99bc	-0.33906353
164	0x3ed1b22d	0.4095625
165	0x3e37c379	0.1794566
166	0xbb99fa07	-0.004698995
167	0xbdb702d6	-0.08936088
168	0xbdab8677	-0.083752565
169	0xbe1b71b0	-0.15180087
170	0x3eda6daa	0.42661792
171	0x3e677720	0.22604036
172	0xbec27872	-0.37982517
173	0x3d376bb1	0.044780437
174	0xbe16e02e	-0.14733955
175	0xbdfc22c1	-0.12311316
176	0xbcec4c2a	-0.028844912
177	0xbe7808cd	-0.24222107
178	0xbe4a31c3	-0.19745545
179	0xbe8fdbc1	-0.28097346
180	0xbddb0ecc	-0.10696182
181	0xbedac5ec	-0.42729127
182	0xbe71ba42	-0.23606208
183	0xbe9d61b4	-0.30738604
184	0xbe3c3827	-0.18380795
185	0xbcf3264b	-0.029681345
186	0x3eb12d4d	0.34604874
187	0xbe2c7c7f	-0.16844366
188	0xbe5f96ef	-0.2183492
189	0xbe888e0d	-0.26670876
190	0x3d732fec	0.059371874
191	0xbea31259	-0.31849936
192	0xbeab1d2a	-0.33420688
193	0x3e202d6c	0.15642327
194	0x3ddbec1f	0.10738396
195	0x3ee67451	0.45010617
196	0x3e58ec18	0.21183813
197	0x3e02ab9a	0.12760773
198	0x3d30f6d8	0.04320416
199	0x3eddb097	0.4329879
200	0xbed4d94f	-0.41572043
201	0xbe5add8e	-0.21373579
202	0x3e184709	0.14870848
203	0x3e8187f1	0.25299028
204	0xbe9ad0cc	-0.30237424
205	0x3dbd3985	0.092394866
206	0x3da7d491	0.08194841
207	0xbe8b0ad4	-0.271567
208	0xbd99677d	-0.07490442
209	0x3ed786ca	0.42095023
210	0x3d5d9169	0.054093752
211	0xbedd102b	-0.43176398
212	0x3ec8dc38	0.39230514
213	0x3ec2ffeb	0.38085875
214	0x3dffb8ef	0.12486445
215	0x3e8c90b9	0.27454165
216	0x3c4b301b	0.012401606
217	0xbd920a52	-0.07130875
218	0x3e2d06e6	0.16897163
219	0x3e3d4a2c	0.18485326
220	0x3e0ec6eb	0.13943069
221	0xbece32fd	-0.40273276
222	0x3ebff450	0.37491083
223	0xbe97d5a6	-0.29655188
224	0x3c8f69e1	0.017506542
225	0xbea2d352	-0.3180185
226	0xbe9aa52a	-0.30204135
227	0x3e1e5d72	0.15465334
228	0xbbb4dcd4	-0.005519489
229	0x3ea24707	0.31694815
230	0x3c864002	0.016387943
231	0x3e17a8de	0.14810511
232	0x3e6505d3	0.22365503
233	0x3e0c4302	0.13697436
234	0x3cd3fb95	0.0258768
235	0xbe85d7c4	-0.2614118
236	0xbe4dab60	-0.20084906
237	0x3c4aa12e	0.01236753
238	0x3ead47e4	0.3384391
239	0x3dd805d7	0.10547989
240	0xbe688f9c	-0.22711033
241	0x3e3fca92	0.18729618
242	0xbca3f7da	-0.020015646
243	0x3ebf7298	0.37392116
244	0x3ea08f3f	0.31359288
245	0xbe66fc58	-0.22557199
246	0x3e828a2b	0.2549604
247	0x3b87c4d8	0.0041433387
248	0xbe046239	-0.12928094
249	0x3e081149	0.13287844
250	0x3e7c00f9	0.24609746
251	0x3edd0ce2	0.4317389
252	0x3e885530	0.26627493
253	0xbed4c3d2	-0.4155565
254	0xbecbcc4e	-0.3980431
255	0xbd9e3b3d	-0.077261426

layer.0.bias f4 [120]
0	0xbe1b8f68	-0.15191424
1	0xbde3727b	-0.1110582
2	0x3e9671e5	0.2938377
3	0xbec5a671	-0.38603547
4	0xbedbb12f	-0.42908618
5	0xbe32706b	-0.17425697
6	0xbdb80d8a	-0.08986957
7	0xbd8516a1	-0.06498457
8	0x3e5ee74f	0.21767925
9	0x3e9f50c2	0.311163
10	0xbe3d725d	-0.18500657
11	0xbe92e6d3	-0.2869173
12	0xbeba9556	-0.3644206
13	0xbddab6e4	-0.10679415
14	0xbe289bf4	-0.16465741
15	0xbdf2ca13	-0.11854949
16	0x3d090cef	0.0334596
17	0x3ee55207	0.44789144
18	0x3e6b2240	0.22962284
19	0x3ea72f16	0.3265311
20	0xbda71928	-0.08159095
21	0x3e688e96	0.22710642
22	0x3e499e29	0.1968924
23	0x3e9755de	0.295577
24	0x3e84be2a	0.25926334
25	0x3e0cf47a	0.13765135
26	0x3e00ee0f	0.12590812
27	0xbe3eeeb8	-0.18645751
28	0xbe96ef92	-0.29479653
29	0xbecb7c77	-0.39743397
30	0xbdadbffc	-0.08483884
31	0x3e3ea1aa	0.18616357
32	0x3de1c863	0.11024549
33	0x3ee0c232	0.4389816
34	0x3ddf5512	0.10904898
35	0x3e0174f4	0.1264227
36	0xbee0a8e9	-0.43878868
37	0xbdf03e4b	-0.117306314
38	0xbe055733	-0.13021545
39	0xbd9987f4	-0.07496634
40	0xbed3f7ad	-0.413999
41	0x3e9327b7	0.28741238
42	0x3e8f2f69	0.2796586
43	0xbe2de9eb	-0.16983764
44	0x3e3d0dba	0.18462268
45	0xbc619fa4	-0.013770971
46	0xbeb64949	-0.35602787
47	0xbed04955	-0.40680948
48	0xbe9fc530	-0.3120513
49	0x3ea4ae6d	0.32164326
50	0x3edebc91	0.4350324
51	0x3ede8a3f	0.43464848
52	0x3eddcb86	0.4331934
53	0x3e815bb8	0.25265288
54	0xbecab817	-0.39593574
55	0xbe81387b	-0.25238404
56	0xbd8e169b	-0.069379054
57	0xbe4dfc5b	-0.20115797
58	0x3ec422ce	0.38307804
59	0x3e44d33c	0.19221205
60	0x3eabd4fc	0.33560932
61	0x3ed113ef	0.4083552
62	0x3e04e5d7	0.12978302
63	0xbe83bc64	-0.25729668
64	0xbe140eda	-0.1445879
65	0x3e925fe6	0.2858879
66	0xbe212491	-0.15736605
67	0x3d64110d	0.055680323
68	0xbec47352	-0.38369232
69	0xbe7ff857	-0.24997078
70	0x3d42371d	0.04741584
71	0x3e994e7d	0.29942694
72	0xbecea31f	-0.40358827
73	0x3eb58845	0.35455528
74	0x3e61f53c	0.22066206
75	0x3eac3c7a	0.3363989
76	0xbeaa5bfe	-0.3327331
77	0x3eb8897d	0.36042395
78	0xbd6db5d3	-0.05803473
79	0xbe4cd86c	-0.20004433
80	0x3be0783d	0.006850271
81	0x3eac0504	0.33597577
82	0x3ebc2612	0.36747795
83	0x3ec42f50	0.38317347
84	0x3e05b205	0.1305619
85	0x3e713720	0.23556185
86	0xbe4d2112	-0.20032147
87	0xbce09565	-0.027414987
88	0xbd7d6f3a	-0.061873652
89	0xbdbcc6da	-0.092176154
90	0x3e76de5c	0.24108261
91	0xbe1712e0	-0.14753294
92	0x3e1f70f4	0.15570432
93	0xbecb4e27	-0.39708063
94	0x3e49ab0a	0.19694152
95	0x3d4af59d	0.04955064
96	0xbec73243	-0.38905534
97	0xbea1be87	-0.31590673
98	0xbe874ead	-0.26427212
99	0x3d0f59c4	0.034997717
100	0x3e7df24c	0.2479946
101	0x3ed88892	0.42291695
102	0x3ec11254	0.37709296
103	0x3e6a1a68	0.22861636
104	0x3edadffd	0.42749014
105	0xbe27f1fe	-0.16400906
106	0xbd730fba	-0.05934117
107	0x3ea97c87	0.3310282
108	0xbecef4a0	-0.4042101
109	0x3e887c46	0.26657313
110	0xbe8eaa91	-0.27864507
111	0xbdb2be0a	-0.08727653
112	0xbe84ebf5	-0.2596127
113	0x3e0313ce	0.12800524
114	0xbea3be95	-0.3198134
115	0x3ed2225a	0.41041833
116	0xbebfe680	-0.37480545
117	0xbe823b49	-0.25435856
118	0x3e6f3433	0.23359756
119	0x3d7123f6	0.058872186

layer.2.weight f4 [1, 120]
0	0x3d45e754	0.048316315
1	0x3e005888	0.12533772
2	0xbc7b3385	-0.015332107
3	0x3d91333e	0.07089852
4	0xbd6c1a74	-0.057642415
5	0x3d526fb8	0.051376075
6	0x3d3c670f	0.04599672
7	0xbc40e386	-0.011772996
8	0x3c8c6da1	0.017142119
9	0x3da23b34	0.07921448
10	0xbdebcc1e	-0.11513542
11	0x3d58a05f	0.052887317
12	0x3d8d171e	0.06889175
13	0xbd1c78d1	-0.038201157
14	0x3c6b757f	0.014371275
15	0x3d4c2721	0.049842004
16	0x3de99c6c	0.11406788
17	0x3b0dc416	0.002163177
18	0x3cc62ae0	0.024190366
19	0x3ba45251	0.0050146957
20	0x3d238a6c	0.03992693
21	0x3d7d02b4	0.061770156
22	0x3dd64cb8	0.10463852
23	0xbcaa7f91	-0.020812782
24	0x3b393e54	0.002826591
25	0xbd812544	-0.06305936
26	0xbc503f1c	-0.012710359
27	0x3d971218	0.07376498
28	0xbdf8d604	-0.12150195
29	0x3d573965	0.05254497
30	0x3d921976	0.071337625
31	0x3c0f237a	0.008736486
32	0xbcfe1127	-0.031014038
33	0xbdcd19ba	-0.100146726
34	0xbdb8eea7	-0.09029894
35	0xbd020cc3	-0.03175045
36	0xbd7dc2b7	-0.061953273
37	0x3d3929de	0.045205943
38	0xbc5b3404	-0.013379101
39	0xbcca1d5a	-0.024672199
40	0x3d407783	0.046988975
41	0x3ce84e7f	0.028357742
42	0x3d24339a	0.040088274
43	0xbc29bae0	-0.010359496
44	0x3a2e7eb7	0.0006656455
45	0x3d8ba24c	0.06818065
46	0xbd3492a4	-0.04408516
47	0x3db4e45d	0.08832619
48	0x3c856924	0.016285487
49	0xbd20ea46	-0.03928592
50	0x3d6b5f2c	0.05746381
51	0xbc82b4f3	-0.015955424
52	0xbd3c2ff9	-0.045944188
53	0xbd1e48c8	-0.03864363
54	0x3cbe0cfc	0.02319955
55	0xbc9c5b33	-0.019086456
56	0xbd303e86	-0.043028377
57	0xbb809000	-0.003923416
58	0xbd8f35cb	-0.06992682
59	0xbe34be7c	-0.17650789
60	0x3d1615d1	0.0366419
61	0x3cf4e613	0.029894864
62	0xbc985648	-0.01859583
63	0xbd6987d8	-0.057014316
64	0x3d2cebe6	0.042217158
65	0xbd33b5e2	-0.04387463
66	0xbd028466	-0.031864546
67	0xbcf19a86	-0.029492628
68	0x3dbb2b4d	0.09139118
69	0x3c53d6d2	0.012929635
70	0x3c8e4e90	0.017371446
71	0xbcfa2071	-0.030533047
72	0x3c82c212	0.01596168
73	0xbe12259c	-0.1427216
74	0xbd42db7c	-0.047572598
75	0xbce1922b	-0.027535519
76	0xbd3b3396	-0.045703493
77	0x3cae52a6	0.021279644
78	0xbd9cdb33	-0.076589964
79	0xbce4f176	-0.027947169
80	0xbcc939eb	-0.02456375
81	0xbd0a8126	-0.03381457
82	0xbd624708	-0.055243522
83	0x3d99cd15	0.075098194
84	0xbc478a17	-0.012178919
85	0xbc76b63d	-0.015058097
86	0x3b825071	0.0039768745
87	0xbcb8ed2f	-0.022574035
88	0xbbea597f	-0.007151782
89	0xbda2ec6e	-0.07955252
90	0xbc8a91bc	-0.016915195
91	0xbc662a52	-0.014048176
92	0xbd3f0086	-0.04663136
93	0xbd068700	-0.03284359
94	0xbd1e6c1f	-0.03867733
95	0xbcc06a50	-0.023488194
96	0xbd91aad1	-0.07112659
97	0xbda732df	-0.08164
98	0x3d10729b	0.035265546
99	0x3d53d9d5	0.051721413
100	0xbc185b8a	-0.009299168
101	0x3c54df26	0.012992656
102	0x3bafa874	0.0053606573
103	0xbd466c03	-0.04844285
104	0xbcbb1044	-0.022834904
105	0x3d943e4b	0.07238444
106	0xbc6a1196	-0.014286419
107	0xbca87fa1	-0.02056867
108	0x3dad9a51	0.08476699
109	0xbdc55dc3	-0.09637024
110	0xbd3031da	-0.043016292
111	0x3be709c7	0.007050726
112	0xbc67618e	-0.01412238
113	0x3d98a1bd	0.07452724
114	0xbc4eeb72	-0.012629377
115	0x3c759542	0.014989199
116	0xbd45bc84	-0.048275486
117	0x3ccbf4bd	0.024896974
118	0x3d5efac7	0.05443838
119	0x3d40a768	0.04703465

0.weight f4 [80, 6]
0	0x43bf4c01	382.59378
1	0x3e83214b	0.25611338
2	0xc3f2a0fb	-485.25766
3	0xc3f0fc24	-481.96985
4	0xc36c2330	-236.13745
5	0xc0edd66d	-7.432425
6	0xc1315912	-11.084246
7	0xbfa58614	-1.2931542
8	0x40f211c2	7.5646677
9	0xc002ac44	-2.0417643
10	0x3fc40833	1.5315002
11	0xbdd45006	-0.10366826
12	0x438d68fc	282.8202
13	0xc0a24517	-5.070934
14	0xc2220419	-40.504
15	0xc29ea37c	-79.319305
16	0xc33f8213	-191.5081
17	0xc08d4958	-4.415203
18	0x41ac9c61	21.576357
19	0xc081aec0	-4.052582
20	0xc17acb34	-15.67461
21	0xc212d6aa	-36.709633
22	0xc203803f	-32.87524
23	0xbf8db674	-1.1071305
24	0xc4214585	-645.08624
25	0xc035a46d	-2.8381608
26	0xc4ad5981	-1386.797
27	0xc3debab1	-445.45853
28	0xc3a49356	-329.15106
29	0xc15b716a	-13.715189
30	0xc3a2d3a8	-325.65356
31	0x4225ab88	41.41751
32	0xc39afc35	-309.97037
33	0x42ae8ca6	87.274704
34	0x4239fd82	46.497566
35	0xbf340202	-0.70315564
36	0x425cee51	55.23273
37	0x3fef5c39	1.8700019
38	0xc1da9e3c	-27.327263
39	0x4215456e	37.317802
40	0x417c6fa9	15.777261
41	0x3e394b17	0.18095051
42	0xc3738805	-243.53133
43	0x40f9f6b6	7.811366
44	0xc263d41f	-56.95715
45	0xc23b0873	-46.75825
46	0x43370be5	183.04646
47	0x4080d310	4.0257645
48	0x43c08960	385.07324
49	0x40363d37	2.8474863
50	0xc4805937	-1026.788
51	0xc38a1bdc	-276.21765
52	0xc3cc4aa4	-408.58313
53	0xc1661f71	-14.382676
54	0xc096e219	-4.7151
55	0xc065fc83	-3.593537
56	0x41cf8126	25.93806
57	0x4091fec2	4.5623484
58	0x4180389c	16.027641
59	0x3e9635ce	0.29337925
60	0x41b974d8	23.182053
61	0x3fd5ff8d	1.6718613
62	0xc19ed138	-19.852158
63	0x412baa46	10.729071
64	0xc0b6e137	-5.714992
65	0xbd45bffb	-0.04827879
66	0xc38e0a0d	-284.07852
67	0x410a6263	8.64902
68	0xc43c39a9	-752.90094
69	0xc3871ee3	-270.2413
70	0xc318d3b6	-152.827
71	0xc0e1f564	-7.061205
72	0xc20b0b1e	-34.760857
73	0xc178b324	-15.5437355
74	0xc2acd035	-86.406654
75	0xc2a30b69	-81.522285
76	0x419ba4d8	19.45549
77	0x3f54124c	0.8284042
78	0x4410a9e0	578.6543
79	0xc0a71573	-5.2213683
80	0x44a3fd22	1311.9104
81	0x4494d3f1	1190.6232
82	0x43818dd0	259.1079
83	0x41361d55	11.382161
84	0x41264c93	10.393695
85	0xbfd13231	-1.6343442
86	0x4202e5fd	32.724598
87	0x3f3cf091	0.73804575
88	0x406928e4	3.6431208
89	0xbca7e6b9	-0.02049576
90	0x43227d5b	162.48967
91	0x414031fa	12.012201
92	0xc40235a3	-520.8381
93	0xc30cc533	-140.77031
94	0xc301d2e2	-129.82376
95	0xc0aeadbc	-5.458708
96	0x43847134	264.8844
97	0x3f86c30d	1.0528275
98	0xc3198a82	-153.54105
99	0xc23dccd0	-47.450012
100	0xc328cd09	-168.80092
101	0xc095ca50	-4.6809464
102	0xc0cdd5ef	-6.432365
103	0x3d90d31a	0.070715144
104	0x40e65181	7.197449
105	0x407192d5	3.774587
106	0x3fb4f72d	1.4137932
107	0xbe975796	-0.2955901
108	0x430d54d1	141.33131
109	0xc080e1a1	-4.0275426
110	0x43b191f9	355.1404
111	0x437c00a4	252.0025
112	0x43131ea6	147.11972
113	0x3e9995b5	0.2999703
114	0x43804dbb	256.60727
115	0x41cc3cd7	25.529707
116	0xc30fd810	-143.844
117	0x422950e2	42.328987
118	0x40363007	2.8466814
119	0xbf277652	-0.6541492
120	0xc3546643	-212.39946
121	0x3ecd52e5	0.40102306
122	0x4348ba10	200.7268
123	0x425cff31	55.24921
124	0x42eee255	119.442055
125	0x408368b5	4.1065316
126	0xc45b43eb	-877.0612
127	0x401fb193	2.4952133
128	0x44866bef	1075.3729
129	0x4395bbbd	299.4667
130	0x44336dce	717.7157
131	0x41aa772e	21.308193
132	0xc2c784b3	-99.75918
133	0xc0fa076a	-7.813405
134	0x442f49b0	701.15137
135	0x43993274	306.39417
136	0x432d8e06	173.55478
137	0x40f4318a	7.6310472
138	0xc2dd16b0	-110.54431
139	0xbfc4f1ab	-1.5386251
140	0xc3e025a7	-448.29416
141	0xc384f352	-265.90094
142	0xc35cdcc0	-220.8623
143	0xc0e486d3	-7.141458
144	0x41441a68	12.256447
145	0xbfe1c541	-1.7638322
146	0xc02cf87f	-2.702667
147	0xc1b0b367	-22.087599
148	0xc1a78a2d	-20.942469
149	0xbe85a524	-0.26102555
150	0xc4855630	-1066.6934
151	0x42343f90	45.062073
152	0xc393892b	-295.07162
153	0x424754c1	49.832767
154	0x4401f764	519.8655
155	0x4122e0c1	10.179872
156	0xc42fa824	-702.6272
157	0xbedb55b4	-0.42838824
158	0x42ae5a43	87.17629
159	0x43749e04	244.61725
160	0x43d303ec	422.03064
161	0x41250910	10.314713
162	0xc26908d3	-58.258617
163	0x3f197a87	0.59952587
164	0x42203d40	40.059814
165	0xc152bc91	-13.171037
166	0x4161fc5a	14.124109
167	0x3f4085b7	0.7520403
168	0xc3ffcafb	-511.5858
169	0xc0990e61	-4.783005
170	0x448051a2	1026.551
171	0x43f26b77	484.83957
172	0x43d21abe	420.20892
173	0x4168ca98	14.549461
174	0xc396e137	-301.7595
175	0xc0bc7c1f	-5.8901515
176	0xc4488e4e	-802.2235
177	0xc3c982a4	-403.02063
178	0xc3616c1d	-225.42232
179	0xc113b1e1	-9.230927
180	0x416d2d0d	14.823499
181	0xbfbdbd85	-1.4823462
182	0xc2d92334	-108.568756
183	0xc21a7f37	-38.624233
184	0xc238cfae	-46.202812
185	0xbfda9183	-1.7075657
186	0x43454bbd	197.29585
187	0xbf041f0b	-0.5160987
188	0xc1d2273a	-26.269154
189	0xc22fd4f9	-43.95798
190	0xc2babf54	-93.37369
191	0xc01b3bc0	-2.4255219
192	0x44045325	529.29913
193	0x3fe6c144	1.802773
194	0xc4226175	-649.52277
195	0xc2455f29	-49.34293
196	0xc3b2efa0	-357.87207
197	0xc134a4ec	-11.290264
198	0x41f6f6f0	30.870575
199	0x3ffc67d0	1.9719181
200	0xc1b2238f	-22.267363
201	0x421f7483	39.86378
202	0xc10770c0	-8.465027
203	0x3e192186	0.14954194
204	0x4483c1f3	1054.0609
205	0xc1bee061	-23.85956
206	0x4349d5f9	201.83583
207	0xc3335812	-179.34402
208	0xc3f2c35a	-485.52618
209	0xc124f95d	-10.31088
210	0xc2e9652c	-116.6976
211	0x40d15f1f	6.5428615
212	0x433dcc6a	189.7985
213	0xc2a0e663	-80.449974
214	0x43144555	148.27083
215	0x40870ac7	4.2200656
216	0x435b96ef	219.58958
217	0x419b2a93	19.395788
218	0xc3124a27	-146.28966
219	0xc350db1f	-208.85594
220	0xc0c8f91f	-6.2804103
221	0xbfe32968	-1.7747011
222	0xc2f75abb	-123.67721
223	0x40a6aab2	5.208337
224	0x42e9bd78	116.870056
225	0x429879e4	76.23807
226	0x429f0108	79.502014
227	0x403452f9	2.8175642
228	0xc4acef47	-1383.4774
229	0x41a82b8f	21.021269
230	0x4427861d	670.0955
231	0x435ebe76	222.74399
232	0x44709f14	962.4856
233	0x41cac75e	25.347347
234	0x4119515d	9.582364
235	0xc006bb5b	-2.1051853
236	0xc13ccfc7	-11.800727
237	0xc15962c1	-13.58661
238	0xc1288859	-10.533288
239	0xbf052732	-0.5201293
240	0xc12e509f	-10.894683
241	0x3fd60335	1.6719729
242	0xc22a7bc1	-42.620853
243	0x4132997c	11.162472
244	0x40d15618	6.5417595
245	0xbe831d8d	-0.25608483
246	0x425a3bdd	54.55846
247	0x3fc1fb06	1.5154731
248	0x43320829	178.03188
249	0x42b13880	88.61035
250	0x41ceef68	25.866898
251	0x3fb459ac	1.4089866
252	0xc4a369de	-1307.3083
253	0xc0743a73	-3.8160675
254	0x43945830	296.68896
255	0x43c14dc0	386.60742

0.bias f4 [80]
0	0xc137f5b7	-11.497489
1	0x3e7b0b36	0.24515995
2	0xc11b0483	-9.6886015
3	0xbfd98595	-1.6993891
4	0xc181648b	-16.174093
5	0x3ffc67d3	1.9719185
6	0x3f98f367	1.194928
7	0x410ec5b8	8.923271
8	0xc1a3f76d	-20.495813
9	0x3f913687	1.1344765
10	0x3db05c6f	0.0861138
11	0xc0f707a3	-7.719682
12	0x3f8bf8bc	1.0935283
13	0x4144f348	12.309395
14	0x3e2b8787	0.16750918
15	0xc0d30d6e	-6.5953894
16	0xc10cbea1	-8.79654
17	0xbe2e103f	-0.16998385
18	0x4068c592	3.6370587
19	0x3e550b89	0.20805182
20	0x40cafc59	6.343304
21	0x420defa2	35.484016
22	0x410f0936	8.939749
23	0xc133f23c	-11.246639
24	0xbf4e3524	-0.80549836
25	0x41cd8232	25.688572
26	0x41ab8e69	21.444536
27	0x3f5cfb57	0.86321014
28	0x41a61aa8	20.763016
29	0xc136d364	-11.426609
30	0xbffbe54c	-1.9679351
31	0xc0a2723e	-5.0764456
32	0xc190ba5e	-18.091
33	0xbeef0392	-0.4668241
34	0xc1c5216a	-24.641315
35	0x40f51904	7.6593037
36	0xbfe07dd6	-1.7538402
37	0x408530d9	4.162213
38	0x42426f27	48.608547
39	0xbe1abf39	-0.15112008
40	0x3e19e73f	0.1502962
41	0x3f9a9daa	1.2079365
42	0x42177ee2	37.87391
43	0x3f52ad18	0.8229537
44	0x41b9807f	23.187742
45	0xbe42215e	-0.18958041
46	0xbe17d8e1	-0.14828826
47	0xbe531959	-0.20615138
48	0x4116a66e	9.415632
49	0x41407059	12.027429
50	0x411be3e4	9.743137
51	0xbf06abaa	-0.5260569
52	0xc0bf0e49	-5.970494
53	0xc0b4f39e	-5.6547384
54	0xbdd0ff18	-0.10204905
55	0x401d71a9	2.4600623
56	0x41d9752f	27.182219
57	0x408c7555	4.3893228
58	0xbe0de4c4	-0.13856798
59	0x4202ca66	32.697655
60	0x41bf89e9	23.942339
61	0xc05a19e5	-3.4078305
62	0x41f433f1	30.525362
63	0x3fce4807	1.6115731
64	0x419839d0	19.028229
65	0x4142655a	12.149744
66	0xc04a05b3	-3.1565979
67	0x40f1a443	7.5513015
68	0x4127eaa6	10.494787
69	0xc03f5891	-2.9897807
70	0xc00cc6d6	-2.199636
71	0x3fded308	1.7408152
72	0x3e8a2219	0.2697914
73	0x41275450	10.458084
74	0x408504b8	4.156826
75	0x41588a08	13.533699
76	0x3fca089c	1.5783877
77	0xc0786184	-3.880952
78	0xc06fe689	-3.7484457
79	0xc1911617	-18.135786

2.weight f4 [1, 80]
0	0xc3ae505e	-348.62787
1	0x43970e03	302.10947
2	0xc104421b	-8.266139
3	0xc2e39198	-113.78436
4	0x4394231a	296.27423
5	0x43b9fb3e	371.96283
6	0xc2bd78b2	-94.73573
7	0xc3c6dc2d	-397.72012
8	0xc3771c63	-247.11089
9	0xc2993c67	-76.61797
10	0xc2eef955	-119.48698
11	0x43c29f8a	389.2464
12	0xc1f27004	-30.304695
13	0xc2bdfaa9	-94.98957
14	0xc41380b3	-590.0109
15	0xc3aa375d	-340.43253
16	0xc2cfe34b	-103.94393
17	0xc0878a5c	-4.2356396
18	0xc14a424c	-12.641186
19	0xc3368b12	-182.54324
20	0xc319cb2f	-153.79369
21	0x4453bdfd	846.96857
22	0x4387cb97	271.59055
23	0xc2653077	-57.29733
24	0xc3562d83	-214.17778
25	0xc2f819a3	-124.05007
26	0x4217e11d	37.969837
27	0xc1ce282f	-25.76962
28	0x41933930	18.402924
29	0xc21e17bf	-39.52319
30	0xc3244e42	-164.3057
31	0x437322e4	243.13629
32	0xc3cf5e5a	-414.73712
33	0xc3464719	-198.27773
34	0x4344a8ca	196.65933
35	0x43911bfa	290.21857
36	0x43618467	225.5172
37	0x44087ab4	545.91724
38	0xc2c56647	-98.69976
39	0xc2893408	-68.60162
40	0x4326a3cd	166.63985
41	0xc0d2941c	-6.5805798
42	0x434f17cd	207.09297
43	0xc312bf8f	-146.74828
44	0xc396e6e8	-301.80396
45	0xc307c3c3	-135.7647
46	0x4197a690	18.95633
47	0xc339c2b0	-185.7605
48	0x43a1c520	323.54004
49	0x42f4b665	122.35624
50	0x41e5cba1	28.724428
51	0xc427a461	-670.5684
52	0xc3a280f8	-325.00757
53	0xc3e792d2	-463.14703
54	0x43332fe9	179.18715
55	0x43b83c6a	368.472
56	0x433edf4f	190.8723
57	0x432de2be	173.88571
58	0xc3738742	-243.52835
59	0x43c28642	389.0489
60	0x42090db7	34.263393
61	0x430209f3	130.03886
62	0xc26558d1	-57.336735
63	0x4312d893	146.846
64	0xc3cd2638	-410.29858
65	0x43d07118	416.88354
66	0xc316c44d	-150.7668
67	0x4413c7df	591.123
68	0x43250838	165.0321
69	0xc31e0804	-158.03131
70	0xc31b4d7d	-155.30269
71	0xc2b81d6c	-92.057465
72	0x42fe9e1a	127.30879
73	0x43431b4a	195.1066
74	0x4336993d	182.59859
75	0x411c095b	9.752284
76	0xc2ba25fb	-93.07418
77	0x430ed1a0	142.81885
78	0xc323a737	-163.65318
79	0x43b08382	353.0274

0.weight f4 [80, 6]
0	0xbfb305b0	-1.3986111
1	0x3cc695b9	0.024241315
2	0xbf25631c	-0.64604354
3	0xbfdfc35a	-1.7481492
4	0x3f47e6d9	0.7808662
5	0xbb8d2608	-0.004307512
6	0x3ec49206	0.38392657
7	0x3d0ad98a	0.033898868
8	0x3f7d8151	0.99025446
9	0xbf1b7969	-0.6073213
10	0x3e881e25	0.26585498
11	0xbc327863	-0.01089296
12	0x4018f5f7	2.3900125
13	0xbe1f21f5	-0.15540297
14	0x3e9c0e05	0.30479446
15	0x3ee1fd01	0.4413834
16	0xbf4e3b6c	-0.8055942
17	0xbcb9d2c3	-0.022683507
18	0x3f696efd	0.9118498
19	0xbdfd2817	-0.12361162
20	0x3fdb9e97	1.7157773
21	0xbf05ba81	-0.5223771
22	0xbde3f3eb	-0.11130508
23	0xbcbd228b	-0.02308776
24	0xbe30ce14	-0.17266113
25	0xbda3b681	-0.07993794
26	0x3fe5616c	1.7920356
27	0x3e147d63	0.14500956
28	0x3ee8d086	0.4547159
29	0x3d0ba692	0.0340944
30	0x3fcc36d7	1.5954236
31	0xbe0bfbe6	-0.1367031
32	0xbffa8244	-1.9571004
33	0xbf26cc99	-0.6515594
34	0xbfde95b9	-1.7389442
35	0xbd0a2cf7	-0.033734288
36	0x3fe2366e	1.7672861
37	0xbd9972fe	-0.07492636
38	0xc008fd86	-2.1404738
39	0xc059e71e	-3.4047313
40	0xbfccc0ce	-1.5996339
41	0xbd47c52d	-0.048772026
42	0x40ab46c8	5.3523903
43	0xbe38ce54	-0.18047458
44	0x3f95dcd7	1.170802
45	0x3de154e6	0.11002521
46	0xc011cf55	-2.2782795
47	0xbd900d01	-0.0703373
48	0x407378d5	3.80425
49	0x3cb2fe52	0.021849785
50	0xbedb86dc	-0.42876327
51	0xbfe8e0d4	-1.8193612
52	0xbf92c7d4	-1.1467233
53	0xbd4c5707	-0.049887683
54	0x3f097579	0.53694874
55	0xbc624240	-0.013809741
56	0xbea2400e	-0.31689495
57	0xbe05f76e	-0.13082668
58	0xbe138c92	-0.14409092
59	0x3c8dee8a	0.017325658
60	0xbfa51f00	-1.2900085
61	0xbbdb4ee2	-0.006692753
62	0xbf77a496	-0.96735513
63	0xbf199c95	-0.6000455
64	0xbc820af4	-0.015874363
65	0xbae3e3b0	-0.0017386582
66	0xc08666ec	-4.2000637
67	0x3e1dd376	0.15412697
68	0xbf5b592c	-0.8568294
69	0xbcc30696	-0.023806851
70	0x3fc5c61f	1.5451087
71	0x3c8abde3	0.016936248
72	0xbfc15116	-1.510287
73	0xbbd245e9	-0.0064170253
74	0x3f6e6bf2	0.9313346
75	0x3e9aaf6a	0.30211955
76	0x3f81b804	1.0134282
77	0x3bd356ff	0.0064495797
78	0xc00abc46	-2.1677413
79	0x3d8f8ffa	0.07009883
80	0xbea28113	-0.317391
81	0xbf19e113	-0.6010906
82	0x3f6f9f23	0.936022
83	0x3d27c504	0.040959373
84	0xbefde5ec	-0.4958948
85	0xbc2ea64c	-0.010659765
86	0x3f73a88e	0.9517907
87	0xbeb6dab4	-0.35713732
88	0x3efeb922	0.4975062
89	0xbc6a0390	-0.014283076
90	0x3e89d415	0.26919618
91	0xbd827781	-0.0637045
92	0xbe2e2101	-0.17004777
93	0xbe3b739c	-0.1830582
94	0xbe16891d	-0.14700742
95	0x3cdb2482	0.026750807
96	0xbdb31fbf	-0.087462895
97	0xbdc8cfdf	-0.09805273
98	0x3d944498	0.07239646
99	0x3e01dd6f	0.12682126
100	0xbea6340b	-0.3246158
101	0xbd022e51	-0.031782452
102	0xbf513c4f	-0.8173265
103	0xbd1e1aee	-0.0385999
104	0x3f2a8b0b	0.6661841
105	0x3ef06bf5	0.46957365
106	0x3eba18e2	0.3634711
107	0x3c395fe6	0.011314368
108	0xbe7e8f7c	-0.24859422
109	0xbcb99d9d	-0.022658164
110	0xc013c5e3	-2.308953
111	0xbf9c8e53	-1.2230934
112	0xbec9e2ad	-0.39430752
113	0x3b284ab4	0.0025679292
114	0xbf20ec08	-0.62860155
115	0x3c40d863	0.011770341
116	0x3eeff57b	0.46866974
117	0x3dcd37be	0.100203976
118	0x3e8c0bbf	0.27352712
119	0x3ab6a32d	0.0013934128
120	0x3f89dd32	1.0770628
121	0x3d1476ba	0.03624604
122	0x40150056	2.3281455
123	0xbed4e156	-0.41578168
124	0x3ca01a79	0.019543873
125	0x3d0fec07	0.035137203
126	0x401e8a25	2.4771817
127	0xbe2a44c4	-0.16627795
128	0x3edee15f	0.4353132
129	0xbf0bb70a	-0.5457617
130	0xbf60f42e	-0.8787259
131	0xbcbf7c39	-0.023374664
132	0x3e43e1e8	0.19129145
133	0xbcf62078	-0.03004478
134	0x3ff089a9	1.879201
135	0x3f986902	1.1907046
136	0x3e5f3e3e	0.21801087
137	0x3c07b0b0	0.008281872
138	0x3f730b4a	0.949391
139	0x3d8ae5d9	0.06782121
140	0x3f0bf69a	0.5467316
141	0x3f4c062f	0.79696935
142	0xbf1c589d	-0.61072713
143	0xbb8f2423	-0.0043683215
144	0xc0351622	-2.8294759
145	0xbd0966a7	-0.033545163
146	0x3fe690d0	1.8012943
147	0xbf84fc50	-1.03895
148	0x3fb88c20	1.4417763
149	0x3d4ef478	0.050526112
150	0xbe9e386c	-0.3090242
151	0x3e52e80b	0.2059633
152	0xbdc74e6b	-0.09731754
153	0x3fa92dd4	1.3217111
154	0xbf660552	-0.8985187
155	0x3bbf031f	0.0058292295
156	0xbf9e14c4	-1.2350087
157	0xbc19568a	-0.009359011
158	0x3f4760ee	0.7788228
159	0x3ea27f24	0.31737626
160	0x3f08b588	0.53401995
161	0x3c4e2512	0.01258208
162	0xbf6b822a	-0.9199549
163	0xbd48e168	-0.04904309
164	0x3f5a788a	0.8534018
165	0x3ea720cc	0.3264221
166	0x3f527eac	0.82224536
167	0x3d274cd7	0.040844765
168	0x40663c09	3.5974143
169	0xbe5c5426	-0.21516475
170	0x3f83efda	1.0307572
171	0xbf19ff96	-0.6015562
172	0xbfb179f7	-1.3865346
173	0xbc09c234	-0.008408118
174	0x3ec8599e	0.39130872
175	0xbcf52414	-0.02992443
176	0xbeb6b575	-0.35685316
177	0xbe38219d	-0.17981572
178	0xbe76e7fe	-0.24111935
179	0xbd12e5b4	-0.035863593
180	0x4050ab85	3.2604687
181	0xbe6d26c8	-0.23159325
182	0x3f7eafeb	0.9948718
183	0xbf24b1ed	-0.64333993
184	0xbfb42634	-1.4074159
185	0xbd294adc	-0.041331157
186	0x3e684e7f	0.22686194
187	0xbddd9093	-0.10818591
188	0x3ed16a63	0.4090148
189	0xbec58c2b	-0.38583502
190	0xbe43e484	-0.1913014
191	0xbd02ea46	-0.0319617
192	0x3f25a0db	0.6469857
193	0x3cbf3385	0.023339996
194	0x3ffbb3c6	1.9664237
195	0x3f36880f	0.7130136
196	0x3ee71861	0.45135787
197	0x3d10a30a	0.035311736
198	0x401b2023	2.4238365
199	0x3d4d35e7	0.050100233
200	0x3eaca09d	0.33716288
201	0xbed43b4c	-0.4145149
202	0x3c923bf3	0.017850852
203	0x3c0b9796	0.008520028
204	0xbf4d57d2	-0.8021213
205	0x3de0b810	0.10972607
206	0x3eb9f88b	0.36322436
207	0x3fc9b473	1.5758194
208	0xbed11920	-0.4083948
209	0xbcd80327	-0.02636869
210	0xbfa56143	-1.2920307
211	0x3e31a802	0.17349246
212	0xc082997b	-4.0812354
213	0x3eb9b4a6	0.36270636
214	0xbe88ce37	-0.2671983
215	0xbd521a10	-0.051294386
216	0xbf750597	-0.95711654
217	0x3f098835	0.5372346
218	0xc07c4b01	-3.9420779
219	0x40234805	2.5512707
220	0xbe3271c7	-0.17426215
221	0xbd1e0493	-0.03857858
222	0x3ff5ffbf	1.9218673
223	0xbe1efcb1	-0.15526082
224	0x40271e7a	2.6112351
225	0xbf883baf	-1.0643214
226	0xbf16d8bd	-0.58924466
227	0x3c27ec07	0.010249144
228	0xbfa22a3a	-1.2669137
229	0x3d3bf1c6	0.04588487
230	0x3f8a7f98	1.0820189
231	0x3f59023a	0.8476902
232	0x3f68d549	0.9095045
233	0x3d403ed8	0.046934932
234	0x3f80a806	1.0051277
235	0xbce132cf	-0.027490048
236	0xbf74fcbe	-0.95698154
237	0xbe9455ed	-0.28971806
238	0xbf62a1ce	-0.88528144
239	0xbd1305e4	-0.03589429
240	0x3f0e5533	0.55598754
241	0xbd8201c0	-0.0634799
242	0xbebbbb65	-0.36666408
243	0xbe18218a	-0.14856544
244	0xbdcfdbb0	-0.10149324
245	0x3cd6b560	0.026209533
246	0x400a8814	2.1645555
247	0xbea3fc55	-0.32028452
248	0x4034b449	2.8235037
249	0x3e643b27	0.2228819
250	0x3d58ee08	0.05296138
251	0x3acb4179	0.0015507183
252	0xbf0abbd3	-0.54192847
253	0x3ea045cb	0.31303248
254	0x3c7be982	0.015375497
255	0x3fb5a65e	1.4191396

0.bias f4 [80]
0	0x3c0850fb	0.0083200885
1	0xbc65a457	-0.014016232
2	0xbd3b0912	-0.045662947
3	0xbc80c64c	-0.015719555
4	0x3d56c34d	0.052432347
5	0xbdd6227f	-0.10455798
6	0xbd849b39	-0.06474919
7	0xbe12fbcc	-0.14353865
8	0xbd261a8e	-0.04055267
9	0x3b2d3661	0.0026430117
10	0xbc9edcb7	-0.019392354
11	0x3dd9fd89	0.10644061
12	0x3d74b336	0.05974122
13	0x3cf4cc33	0.029882526
14	0x3b723384	0.0036956975
15	0xbc8c7756	-0.017146748
16	0xbc6a2b4f	-0.014292552
17	0x3c94046d	0.018068517
18	0xbc4072e4	-0.011746142
19	0xbc89a9fb	-0.016804686
20	0xbbccba12	-0.0062477672
21	0xbd6706b9	-0.056402896
22	0x3cdd1d2d	0.026991451
23	0xbd26fbe9	-0.040767584
24	0x3d3fdc3c	0.04684089
25	0xbd00e48b	-0.031467956
26	0x3be55f3d	0.0069998787
27	0x3d280051	0.041015927
28	0xbda4c4f2	-0.08045377
29	0xbcd80fe3	-0.026374763
30	0xbd4a508e	-0.04939323
31	0xbcb67a74	-0.022275187
32	0xbc34c3fd	-0.011033055
33	0x3c0103fd	0.007874486
34	0xbd0ad039	-0.033889983
35	0xbd159218	-0.03651628
36	0xbc72b92a	-0.014814654
37	0xbc9ed6e0	-0.01938957
38	0x3d8c14f1	0.06839932
39	0xbd4bcb06	-0.049754165
40	0xbd1705fa	-0.036870934
41	0xbcc16b81	-0.023610832
42	0x3d777386	0.060412906
43	0x3d0f5f2b	0.03500287
44	0xbb80694b	-0.003918802
45	0xbcf12c6b	-0.029440125
46	0x3ca90744	0.020633347
47	0x3d43bb5e	0.04778611
48	0xbc38c999	-0.011278533
49	0xbd4a8fb3	-0.04945345
50	0x3d015f25	0.031584878
51	0xbd057cb1	-0.032589618
52	0xbd0900b0	-0.03344792
53	0x3cbf78f7	0.02337311
54	0x3d6151bd	0.055009592
55	0xbc2ee6ab	-0.010675113
56	0xbd795467	-0.060871508
57	0x3cf9fe80	0.030516863
58	0x3b8e01b4	0.004333699
59	0xbcd4e3c2	-0.02598751
60	0x3c7060b0	0.01467149
61	0x3ab3cfc8	0.001371854
62	0x3c8e203c	0.017349355
63	0x3d957711	0.07298101
64	0xbb2de1ec	-0.0026532365
65	0xbcd7b824	-0.026332922
66	0xbcb09883	-0.021557098
67	0xbbfc040f	-0.0076909135
68	0x3b246a01	0.0025087597
69	0x3ccf3adb	0.02529662
70	0x3c701bf6	0.014655104
71	0xbd4355a2	-0.047689088
72	0xbd3f7090	-0.046738207
73	0xbd297582	-0.04137183
74	0x3dd1d155	0.10245005
75	0xbade1ee2	-0.001694646
76	0xbd69b53f	-0.057057615
77	0xbc114454	-0.008866388
78	0x3d0a9a28	0.03383842
79	0x3cd79493	0.026315963

2.weight f4 [1, 80]
0	0x3fe05e85	1.7528845
1	0xbfab4181	-1.3379365
2	0xc0038532	-2.0550046
3	0x3e409121	0.18805362
4	0xbf4c3ab8	-0.797771
5	0xbfa0d026	-1.2563522
6	0xc016f08f	-2.3584325
7	0xc0b42716	-5.629771
8	0x4035a430	2.8381462
9	0xbf05f99d	-0.52334005
10	0xbf3eb182	-0.74489605
11	0xc0b72bb5	-5.7240853
12	0x3fc28321	1.5196267
13	0x3f8c28fa	1.0950005
14	0x3f7395ad	0.9515026
15	0xbebb8329	-0.36623505
16	0x3fa296b2	1.2702239
17	0xbf421ab5	-0.75822
18	0x3f9a9893	1.2077812
19	0x3f1ec3c5	0.6201747
20	0x3f3b4c28	0.7316308
21	0xbf4563ae	-0.77105224
22	0x3f829601	1.0202028
23	0x3fa0767a	1.2536156
24	0x3fb61a5e	1.4226797
25	0xbeaec458	-0.34134173
26	0xc0043d58	-2.0662441
27	0x3f6ad86b	0.9173648
28	0x3fac30bb	1.3452371
29	0x3e880288	0.2656443
30	0xbfba50d0	-1.4555912
31	0x3f21cfad	0.63207513
32	0x3ec49e55	0.38402048
33	0x401c7f95	2.445287
34	0x3f47b691	0.7801295
35	0x400f5333	2.239453
36	0xbeb94e34	-0.36192477
37	0x3eab8db4	0.33506548
38	0xbf9c6340	-1.2217789
39	0xbe645410	-0.22297692
40	0xbef6ee5f	-0.48228738
41	0xbf01e137	-0.50734276
42	0x3dfa9fa2	0.12237479
43	0xc005bb55	-2.0895588
44	0x3f9c7ae4	1.2225003
45	0x3f78e719	0.9722763
46	0xbfccf419	-1.6011993
47	0x4031a99b	2.775977
48	0x3ea55608	0.322922
49	0x3f53d182	0.8274156
50	0x3eed9b6a	0.46407634
51	0xbf571b3d	-0.8402594
52	0xbfa0e7d4	-1.2570748
53	0xbe89a16c	-0.26880968
54	0xbfbff8c3	-1.4997791
55	0x3f24bfd1	0.6435519
56	0x3fa395d6	1.2780101
57	0x3fdf3b54	1.743998
58	0x3e7ec202	0.24878696
59	0xbeb0133f	-0.34389684
60	0xc058f49b	-3.3899295
61	0xc09ba4a4	-4.8638477
62	0x3f6eaca7	0.93232197
63	0xbedc437c	-0.43020236
64	0x4005058f	2.0784643
65	0xbfc5a589	-1.5441142
66	0x3eaa140d	0.33218423
67	0x3f7f4364	0.99712205
68	0xbf96bd35	-1.1776491
69	0xbea26a7e	-0.31721872
70	0x3f5471e3	0.8298628
71	0x3f418f30	0.7560911
72	0xbe1bce1f	-0.15215348
73	0xbdd8abaa	-0.10579617
74	0xbf637cd6	-0.8886236
75	0xbfad41b4	-1.3535676
76	0x3ddaed42	0.106897846
77	0xbfa39dee	-1.2782571
78	0x3f849f21	1.0361062
79	0x3f86e55d	1.0538746
