infeasible solution/infeasible_initial-better.pth (torch, 5275 bytes, 3 tensors)

layer.0.weight f4 [120, 5]
0	0xbeaadfd9	-0.33373907
1	0xbe5098c5	-0.20370777
2	0x3e64cf2c	0.22344655
3	0x3e8c8494	0.274449
4	0x3c1ae000	0.00945282
5	0xbe837dea	-0.25682002
6	0xbec4d87f	-0.38446423
7	0x3ec0264e	0.37529224
8	0xbeccb9bb	-0.3998545
9	0xbec81ed0	-0.39086008
10	0xbd215708	-0.03938964
11	0xbebab035	-0.3646256
12	0xbddb7424	-0.107155114
13	0x3e93f6f0	0.28899336
14	0x3de2a2b0	0.110661864
15	0x3e6a026c	0.22852486
16	0x3e4f37e4	0.20236164
17	0xbec01918	-0.37519145
18	0xbed0dc86	-0.40793246
19	0x3df95f88	0.12176424
20	0xbe8bc9ed	-0.27302495
21	0xbed24712	-0.41069847
22	0x3e06dd10	0.13170266
23	0x3e94b130	0.29041433
24	0x3e681434	0.22663957
25	0xbe23779e	-0.15963599
26	0x3eb8500a	0.35998565
27	0x3e0a9ef4	0.13537198
28	0xbee41480	-0.4454689
29	0x3e909ee2	0.28246218
30	0x3ece341a	0.40274125
31	0xbe97933e	-0.29604524
32	0xbeb1b680	-0.3470955
33	0x3e90121a	0.2813881
34	0xbe40270a	-0.18764892
35	0x3e20a624	0.15688378
36	0x3cc8a480	0.024492502
37	0xbec9a45b	-0.39383206
38	0xbebde768	-0.3709061
39	0xbe227f68	-0.15868914
40	0xbd5bb010	-0.053634703
41	0xbe626e6e	-0.22112438
42	0x3e768444	0.24073893
43	0x3e91b99c	0.2846192
44	0x3cbfbc20	0.023405135
45	0x3e9e3c98	0.30905604
46	0x3e3aa834	0.18228227
47	0x3e7582b4	0.2397564
48	0x3e7e770c	0.248501
49	0xbed1b866	-0.40960997
50	0xbe98a83a	-0.29815847
51	0x3edcafae	0.43102783
52	0xbe4fd874	-0.20297414
53	0x3eca20e8	0.3947823
54	0x3ee48bd6	0.44637936
55	0xbeb79206	-0.35853595
56	0xbe78a04a	-0.24279895
57	0xbc4ff3a0	-0.012692362
58	0xbe168b72	-0.14701632
59	0x3eabeb70	0.33578062
60	0x3bcc3980	0.0062324405
61	0x3eca23b4	0.39480364
62	0xbe3db574	-0.1852625
63	0xbe5499f7	-0.20761858
64	0x3e696fb8	0.22796524
65	0x3e56eb44	0.20988184
66	0x3dc7bca8	0.0975278
67	0xbe99f936	-0.30072945
68	0xbebee539	-0.37284258
69	0xbecd88bc	-0.40143383
70	0xbd459148	-0.048234254
71	0xbc1750c0	-0.009235561
72	0x3ebf558a	0.3736995
73	0xbe74e568	-0.23915637
74	0xbe2bc7f4	-0.16775495
75	0x3ec863f6	0.39138764
76	0xbec9161f	-0.3927469
77	0x3da08cf8	0.07839388
78	0xbeb483da	-0.35256845
79	0xbebbf90c	-0.36713445
80	0xbec384bf	-0.38187215
81	0x3bb3d100	0.005487561
82	0x3e71af9c	0.23602146
83	0x3dec8280	0.115483284
84	0x3cfe6e30	0.0310584
85	0xbebe4218	-0.371598
86	0x3c682520	0.014169008
87	0xbeb23306	-0.34804553
88	0x3ee26990	0.44221163
89	0x3be3a400	0.0069470406
90	0x3e954436	0.29153603
91	0xbe27b89e	-0.1637902
92	0x3dc07ac8	0.09398419
93	0xbd740718	-0.059577078
94	0xbd5fd4b0	-0.054646194
95	0x3d1d4918	0.038399786
96	0xbd1efb68	-0.03881398
97	0xbebdd65e	-0.37077612
98	0xbe1ec2ea	-0.15504041
99	0xbe19bda2	-0.15013745
100	0xbe800e02	-0.25010687
101	0x3ee40b32	0.4453979
102	0xbd53c838	-0.051704615
103	0x3ea8be9a	0.32957917
104	0xbe89deb1	-0.26927713
105	0x3ec90b2a	0.3926633
106	0xbd8e8538	-0.06959003
107	0xbea2e05a	-0.31811792
108	0x3ec3f224	0.38270676
109	0x3d8ccf28	0.068754494
110	0x3ecca532	0.39969784
111	0xbd6eb680	-0.058279514
112	0x3ea1dba2	0.3161288
113	0x3e96a93a	0.29425985
114	0xbeba671f	-0.364068
115	0x3d5c8ad0	0.05384332
116	0x3ebe327a	0.37147886
117	0x3e8437f8	0.2582395
118	0x3e5d37b0	0.21603274
119	0x3ec95a56	0.39326733
120	0x3cdd0cc0	0.026983619
121	0xbe144018	-0.14477575
122	0x3e569384	0.2095471
123	0xbe14c1d2	-0.14527062
124	0xbecfa10e	-0.40552562
125	0xbea8d419	-0.32974318
126	0x3e31c598	0.17360532
127	0xbed5e406	-0.4177553
128	0x3edc6720	0.43047428
129	0x3e6e263c	0.23256773
130	0xbec6e4a1	-0.38846305
131	0xbec2da48	-0.3805716
132	0x3ee48802	0.44635016
133	0xbcfb7f20	-0.030700266
134	0x3ea0a0cc	0.31372678
135	0x3ea112ee	0.31459755
136	0xbeadbff8	-0.33935523
137	0x3ed81840	0.42206
138	0x3ea2941a	0.31753618
139	0x3ebcd916	0.36884373
140	0x3d2e29b0	0.042520225
141	0x3e4b4c6c	0.19853371
142	0xbe9343c0	-0.28762627
143	0x3e331cc8	0.17491448
144	0xbe8784ba	-0.2646845
145	0x3ce43140	0.027855515
146	0x3e38b800	0.1803894
147	0x3e024014	0.12719756
148	0xbe57ec13	-0.21086149
149	0x3ebceb1c	0.36898124
150	0x3e29d1e4	0.16583973
151	0xbd0fcec0	-0.03510928
152	0x3ec6c20e	0.38819927
153	0x3e916dc0	0.28404045
154	0xbdbe04b0	-0.09278238
155	0xbdbec324	-0.09314564
156	0xbdd95d38	-0.10613483
157	0xbe8c2b7c	-0.27376926
158	0x3e6985d0	0.22804952
159	0xbeb9c928	-0.36286283
160	0x3e7df750	0.24801373
161	0xbdcbe908	-0.099565566
162	0xbe857644	-0.26066792
163	0xbd8cebcc	-0.06880912
164	0xbe9169f4	-0.28401148
165	0xbeb5930f	-0.3546376
166	0x3ea72d78	0.32651877
167	0xbea07b80	-0.31344223
168	0xbeded148	-0.43519044
169	0xbcbb42a0	-0.022858918
170	0x3e8092ba	0.25111943
171	0xbe877e84	-0.2646371
172	0xbe99072c	-0.29888284
173	0x3e8e21f8	0.2776029
174	0x3c245c60	0.01003179
175	0xbec329cf	-0.38117835
176	0xbed316d6	-0.4122836
177	0x3e0b07e8	0.13577235
178	0x3df3d0e0	0.11905074
179	0xbe9af9c0	-0.3026867
180	0x3e3321c0	0.17493343
181	0xbdfca2e8	-0.123357594
182	0xbe1b537a	-0.15168563
183	0x3dc295f8	0.095012605
184	0xbe9e5814	-0.30926573
185	0xbe41e1f8	-0.18933856
186	0x3ec9830e	0.393578
187	0xbe0ac740	-0.1355257
188	0xbe919a3f	-0.28437993
189	0x3e063cf8	0.13109195
190	0x3e5fa768	0.21841204
191	0xbdc6351c	-0.096780986
192	0x3e647964	0.22311932
193	0x3ccf5e80	0.025313616
194	0x3e6312f4	0.22175199
195	0xbddd5aa0	-0.10808301
196	0xbed4979a	-0.41521913
197	0xbe290dba	-0.16509143
198	0xbe8289a8	-0.25495648
199	0xbdaabe74	-0.08337107
200	0xbe3b854e	-0.1831257
201	0xbe25c86a	-0.16189733
202	0x3eb2f0e8	0.34949422
203	0x3ea36f24	0.3192073
204	0x3edec516	0.4350974
205	0xbeadbc68	-0.33932805
206	0x3d0d1e08	0.03445247
207	0xbdfd3280	-0.12363148
208	0x3cb60260	0.02221793
209	0x3e5401fc	0.20703882
210	0x3e0c6f3c	0.13714308
211	0x3d92ed90	0.07174218
212	0xbe67ab30	-0.22623897
213	0xbed4b46f	-0.4154391
214	0x3d38c448	0.045109063
215	0xbb84dc00	-0.0040545464
216	0xbe89f0e1	-0.2694159
217	0x3e5af0a0	0.21380854
218	0x3dc3bdc8	0.09557682
219	0xbead86aa	-0.33891803
220	0x3e51b740	0.2048006
221	0x3e5dddb0	0.21666598
222	0xbe7e687f	-0.2484455
223	0xbe5a0819	-0.21292152
224	0x3ebedf9a	0.3727997
225	0xbe8cb0c4	-0.2747861
226	0x3ed4f3f8	0.41592383
227	0x3e601bf4	0.21885663
228	0xbe3112ea	-0.17292371
229	0x3deec998	0.11659545
230	0xbeddaf96	-0.43298024
231	0x3d8de088	0.069275916
232	0xbe24bc36	-0.16087422
233	0xbe6342ff	-0.22193526
234	0xbeb792a6	-0.3585407
235	0x3ede0a3e	0.4336719
236	0xbd882010	-0.066467404
237	0xbe39f03a	-0.18158045
238	0x3ed3b93e	0.41352266
239	0x3ed778f4	0.42084467
240	0x3edb00e6	0.42774123
241	0x3ede2e16	0.43394536
242	0x3e90455c	0.28177917
243	0xbe1b7e34	-0.15184861
244	0x3d286548	0.041112214
245	0xbee075ee	-0.43839973
246	0xbecc3a61	-0.3988829
247	0x3ed46cdc	0.41489303
248	0x3e9254e6	0.28580397
249	0xbecaab6c	-0.3958391
250	0xbed33014	-0.41247618
251	0xbeb47c35	-0.35251012
252	0x3dec6b80	0.115439415
253	0xbe86e279	-0.2634466
254	0xbe95a78d	-0.29229394
255	0xbdc1169c	-0.094281405

layer.0.bias f4 [120]
0	0x3eb9f748	0.36321473
1	0xbede2ee3	-0.43395147
2	0x3dd5ca98	0.10439032
3	0x3e876482	0.2644387
4	0xbe542c94	-0.2072013
5	0x3ec9fce2	0.39450747
6	0xbc12aec0	-0.008952796
7	0x3edfd2bc	0.43715465
8	0x3edb11b2	0.42786938
9	0xbe535473	-0.20637684
10	0xbe96ad5e	-0.29429144
11	0x3d8a3408	0.067482054
12	0x3c44de20	0.012015849
13	0xbeb42e51	-0.35191587
14	0x3e9630bc	0.29334056
15	0xbd7cb808	-0.061698943
16	0x3eb3b046	0.35095423
17	0xbc05bce0	-0.008162707
18	0x3ea590e6	0.3233711
19	0x3e37e658	0.17958963
20	0x3d0d63d8	0.034519047
21	0x3e0fd5ec	0.14046448
22	0xbe2c87e4	-0.16848713
23	0xbe3f899e	-0.1870484
24	0xbd8a9b9c	-0.067679614
25	0xbeab4bf8	-0.33456397
26	0xbdd44c48	-0.10366112
27	0x3e134fec	0.14385957
28	0x3d86d6a0	0.06583905
29	0xbdd45194	-0.10367122
30	0x3e375264	0.17902523
31	0xbe63c355	-0.22242482
32	0xbe370212	-0.17871884
33	0xbeb4f449	-0.35342625
34	0x3d15ee18	0.036604017
35	0x3e289f9c	0.16467136
36	0x3e774f50	0.24151349
37	0xbed796b5	-0.42107168
38	0x3eb09aba	0.34493047
39	0xbe3dd78a	-0.18539253
40	0x3e7b1ae4	0.24521977
41	0xbe833181	-0.25623706
42	0x3e0a83cc	0.13526839
43	0x3ec6b64c	0.38810956
44	0x3d9f4ec0	0.07778692
45	0x3e675ac0	0.22593212
46	0xbe2fa066	-0.17151031
47	0xbe09d832	-0.13461378
48	0xbbeaa640	-0.007160932
49	0xbed4e262	-0.41578966
50	0x3d9feca8	0.078088105
51	0xbd34e270	-0.04416126
52	0xbea8491d	-0.3286828
53	0x3e5cae2c	0.21550816
54	0x3a645800	0.0008710623
55	0x3ea42be2	0.3206473
56	0x3e969e08	0.29417443
57	0xbec9b131	-0.39393
58	0xbe922e92	-0.28551155
59	0x3e9e4790	0.30913973
60	0x3eca2dc2	0.39488035
61	0xbe3a2f68	-0.18182147
62	0x3e8241a0	0.25440693
63	0xbea533bd	-0.32266036
64	0xbc9e03d0	-0.019288927
65	0xbe3366c4	-0.1751967
66	0xbcc1f6f0	-0.02367732
67	0xbec06249	-0.37574986
68	0xbe4b1a68	-0.19834292
69	0xbe2efb98	-0.17088163
70	0x3eba3e54	0.36375678
71	0xbbb9d440	-0.005671054
72	0x3ebc66c6	0.3679716
73	0x3e7c5a7c	0.24643892
74	0x3ed5701c	0.41687095
75	0x3df40d50	0.11916602
76	0x3eae02d2	0.33986527
77	0x3e4dd790	0.20101762
78	0x3edc7242	0.43055922
79	0xbdd4e790	-0.103957295
80	0xbeb57924	-0.35443985
81	0xbdc9c0d8	-0.09851235
82	0xbeb394ad	-0.35074368
83	0x3d815f30	0.06316984
84	0xbea26778	-0.31719565
85	0xbec4ae04	-0.38414013
86	0x3ecca6ec	0.399711
87	0x3e9d0912	0.30670983
88	0x3e7969d0	0.2435677
89	0x3e3485d8	0.17629182
90	0xbd2cda00	-0.04220009
91	0x3ed7dcc6	0.42160624
92	0xbe671644	-0.22567087
93	0x3c7aa440	0.015297949
94	0x3e26824c	0.16260642
95	0x3d613ed0	0.054991543
96	0x3e64aeb8	0.22332275
97	0x3eaea80a	0.3411258
98	0xbe963b56	-0.29342145
99	0x3dea4e90	0.11440766
100	0xbdd1c8fc	-0.10243413
101	0xbe4ca3ea	-0.19984403
102	0x3e3d3144	0.18475825
103	0x3db51330	0.0884155
104	0x3ecef8aa	0.4042409
105	0xbe5bd18b	-0.21466653
106	0x3ec20d40	0.37900734
107	0x3ec743dc	0.3891896
108	0xbe247ec4	-0.16063982
109	0x3e8d3948	0.27582765
110	0x3e72602c	0.23669499
111	0xbdde958c	-0.108683676
112	0xbea1bdcc	-0.31590116
113	0x3ed262c2	0.4109097
114	0xbdcacfc4	-0.099029094
115	0xbe5b66a9	-0.2142588
116	0xbe1af4b6	-0.15132412
117	0x3d7890e0	0.06068504
118	0xbe47d63a	-0.19515315
119	0xbde3f984	-0.11131576

layer.2.weight f4 [1, 120]
0	0xbc8c23bc	-0.017106883
1	0xbd88bc23	-0.06676509
2	0x3d9f3f50	0.07775748
3	0x3d9b435e	0.07581209
4	0x3d8633d6	0.06552856
5	0xbdb327ab	-0.087478004
6	0x3c768e20	0.015048534
7	0x3d306278	0.043062657
8	0xbd9d8bc1	-0.076926716
9	0xbc0a9d88	-0.00846041
10	0xbc78e1e8	-0.015190579
11	0xbd00ddc3	-0.03146149
12	0x3d9f49ce	0.07777749
13	0x3c719110	0.014744058
14	0xbaad3340	-0.0013214126
15	0x3d8f23d0	0.069892526
16	0xbb0655a0	-0.0020497814
17	0x3db37a1a	0.087635234
18	0x3d3576d8	0.04430279
19	0x3a8d2880	0.0010769516
20	0xbd8c2307	-0.068426184
21	0xbba19850	-0.004931487
22	0x3d162820	0.03665936
23	0xbcdca1e0	-0.026932657
24	0x3b990390	0.004669614
25	0x3d8de41a	0.069282725
26	0x3d5b3b4c	0.053523347
27	0x3d346220	0.04403889
28	0x3b549440	0.0032436997
29	0x3d58e028	0.052948147
30	0x3da2599e	0.07927249
31	0x3d2d3eb8	0.04229614
32	0xbdaf6524	-0.08564213
33	0xbd52bc58	-0.05144915
34	0xbcf0c30a	-0.029389877
35	0x3c841858	0.01612489
36	0x3d982d22	0.074304834
37	0x3d8637a4	0.06553581
38	0x3b6376c0	0.0034708232
39	0x3d191e4c	0.03738241
40	0x3d157df4	0.03649707
41	0xbc3ab3c8	-0.011395402
42	0x3d4a8214	0.04944046
43	0xbafd8740	-0.0019342676
44	0x3d84a6fc	0.06477162
45	0xbc952010	-0.018203765
46	0x3d76f7b8	0.060294837
47	0x3b267b40	0.0025403053
48	0xbd5454c0	-0.051838636
49	0xbba30cd0	-0.0049758926
50	0x3d9d3c22	0.07677485
51	0x3d5ef96c	0.054437086
52	0xbc5c3520	-0.0134404
53	0xbd3b1d3c	-0.045682177
54	0x3d3da44c	0.046299264
55	0x3d53d3a4	0.051715508
56	0xbda042ab	-0.07825216
57	0xbd886af3	-0.06661024
58	0xbdb26c0a	-0.08712013
59	0x3d86967e	0.06571673
60	0x3c5b6fc0	0.0133933425
61	0x3d525d8c	0.051358745
62	0x3d59b4c4	0.053150907
63	0x3cc8a550	0.02449289
64	0xbc612d28	-0.013743676
65	0xbd90d4de	-0.07071851
66	0xbbc423a0	-0.005985692
67	0x3cf7e2a8	0.030259445
68	0xbd3a7a24	-0.04552664
69	0x3d27c12c	0.040955707
70	0x3d868f94	0.06570354
71	0xbd077b81	-0.033076767
72	0xbd7b26c1	-0.061316255
73	0xbca66a58	-0.02031438
74	0x3cc12cd8	0.023580953
75	0xbc154728	-0.009111203
76	0xbd846d84	-0.06466201
77	0x3db4c922	0.088274255
78	0x3d12a15c	0.035798416
79	0x3d57b96c	0.052667066
80	0xbda66681	-0.0812502
81	0xbc8b8aa0	-0.017033875
82	0x3d2d04c0	0.042240858
83	0x3d1af0d0	0.037827313
84	0xbda5970b	-0.0808545
85	0xbcb92520	-0.02260071
86	0x3d096048	0.033539087
87	0x3d5b5568	0.053548247
88	0xbc1c74c0	-0.00954932
89	0x3d1aefe8	0.03782645
90	0x3d552f9c	0.052047357
91	0x3d722fb0	0.05912751
92	0xbd1c0578	-0.038091153
93	0xbb4cfa60	-0.0031277165
94	0xbd669937	-0.05629846
95	0xbd392913	-0.045205187
96	0x3d2019b8	0.039087027
97	0xbdb21714	-0.08695808
98	0x3d14cce0	0.036328197
99	0xbd43e9b6	-0.047830306
100	0xbd94b50a	-0.07261093
101	0x3d697374	0.05699487
102	0x3d3769a4	0.04477848
103	0xbc243e10	-0.0100245625
104	0x3b0b1ee0	0.002122812
105	0xbd79617a	-0.060883977
106	0xbd80d886	-0.062912986
107	0x3cab2848	0.020893231
108	0xbd7d849e	-0.06189405
109	0x3daa7c64	0.08324507
110	0x3d8c7214	0.06857696
111	0x3d1933b4	0.037402824
112	0x3cf2cb00	0.029637814
113	0x3b87ec70	0.0041480586
114	0xbdb469e3	-0.08809259
115	0x3db0f7f6	0.08641045
116	0xbcc92668	-0.024554446
117	0xbd972a52	-0.07381119
118	0xbd9335b6	-0.07187979
119	0xbdb41a58	-0.08794087
