infeasible solution/infeasible_initial.pth (torch, 4587 bytes, 3 tensors)

layer.0.weight f4 [120, 5]
00000000: 920c e1be ec6a a63e ad47 6e3d dd65 6a3d
00000010: 210d d3be f06c 9c3e 7144 d43e d454 8d3e
00000020: 5a3b 23bd 2085 0a3e 7c70 803e 4fb9 783e
00000030: 8a7e bc3e fd32 453e 53d6 173d 904e 8cbe
00000040: 5cb4 1abe 1407 6abe 78a4 913d 1861 a7be
00000050: f68d 623e bcc8 b5be cfa6 44be 1e0b 37be
00000060: f714 d33e 35f2 b4be 763c d73e be82 0bbe
00000070: dc39 f03d b22a 6abe 5190 6fbd 9158 f63d
00000080: 604d e03d b570 02be d958 3fbe fbe2 76be
00000090: 3125 5e3e c317 973d 7c44 3ebe 8741 513d
000000a0: d93c 45be 19e4 9fbd 5179 1d3c 3180 733e
000000b0: 5e39 8d3e 67a4 d63e d91d 3dbe 0826 d73e
000000c0: f157 c63e 8cbf a0bd 654a e53e e22e adbe
000000d0: a8dc 69bc 42c5 98be 95e6 1cbe 025c 8a3b
000000e0: 9fad 9a3e e7d3 e1be bec7 423b 48f0 babe
000000f0: 3316 5dbe 6deb babe c250 9ebe d7db ca3e
00000100: b428 c43e 3271 b2be 1df2 4d3d 8b49 65be
00000110: 18af a63b 119e 6e3e e092 043e d8c4 cfbe
00000120: e12d 0c3e b65d ac3e a3fe 7dbe 8000 e2be
00000130: 99db 973e 2d64 dabd 1ed7 babe 4828 09bd
00000140: e1a4 8cbe ec42 c0be f17e 913e 4e4e c43c
00000150: 58ec 0ebe 5a26 c63e 252c 8e3e 6b10 1bbd
00000160: ba92 0bbe 05e0 db3c 1b9b b3be f290 683e
00000170: e754 cdbe 92bc 563e c730 95be b046 c8be
00000180: 1a6c a1be c990 00bd 7d0a 6bbe 72e1 63be
00000190: 097e 9fbd 2745 fdbd b077 ca3c bacd e1be
000001a0: 1c56 963e 5920 99bd 10d5 a7be d98e 933e
000001b0: add0 2f3e 42aa c6be 5403 93bd d385 d23e
000001c0: f42a a4be 392a 02be 86af cc3e 94e2 09be
000001d0: e760 b7be 969f 34bd 8f50 05be 4d0e 3abe
000001e0: 0738 c23e 8100 e6bd a0e3 2abd 6068 403e
000001f0: 1e99 b4be bb07 c13e 0bac 523c 58bf 1cbe
00000200: f24a 913e 13ba b7be 660b a1be 927a bf3e
00000210: ea34 843e dc73 483e 9ca6 7abe 2bc3 da3e
00000220: bb14 853e 2089 ddbd b895 7dbe 1971 ae3e
00000230: 1f0b 743e edf2 d13e cabd d93d 6af9 19be
00000240: f99c 9abe 45be 97be 2b4b 923d 1061 803e
00000250: 7a69 1e3d b362 7bbe 55d3 ae3e d3d5 aa3e
00000260: 826e 473d 6b23 6dbe 091f 95bb 17a2 65bd
00000270: 5010 223e f55b b73d b697 3cbe 528d 99bd
00000280: f0bd 90be 6c0e b13e c735 a93d 1308 a7bc
00000290: fb82 c63e 6703 d4bd d018 15be b7ed 6a3e
000002a0: 13fd 773e 1445 c6be 870d 7abe a3cd 5bbe
000002b0: 0904 243e 8f55 a7bd 1f9e 123d 5170 2d3e
000002c0: 293d a53e 6eae 7d3d 8d9c 7cbe c6c8 563e
000002d0: d10f 353e d22e afbe 812d d43e 79e5 03bd
000002e0: 99b1 7e3c 989e 8fba 3369 a43c 5d6a debe
000002f0: b35c 1a3e 2220 32be f707 a6be e4b1 12be
00000300: da30 c13e 7632 bdbd 5a2c b13e be62 ad3e
00000310: ac21 99be fd59 87be dadc 7abe f718 8bbe
00000320: 5236 91be 215e c2bc 3952 013e fcf1 55be
00000330: 2e06 20bd 863c 9e3d 0b73 92be bcc3 89bd
00000340: bea9 ad3d 8c82 f33d 1e14 813e 6ffc 653d
00000350: e2c5 b73e 2e72 aa3d 8a44 b53e 88ce 79be
00000360: 24c1 4bbe 5a3c 7fbe 3109 a3be 1feb 1ebe
00000370: e199 92bd 385d cbbd db10 983e 3f42 cfbe
00000380: 6be3 3e3e e143 d0be 9d2e d33d 28b8 9d3e
00000390: 5adf a6be b97f cd3e b30b d43c bdac 883d
000003a0: 9823 013e b891 8b3d 4d3d c8be 8b32 b43d
000003b0: f488 273d c669 bcbc db63 c4be 44de 333e
000003c0: cdd8 bbbd e418 9bbe 86c8 a5be 0e87 a9bd
000003d0: e0a1 57be 5ad3 b3be ec2f d43e a580 ed3d
000003e0: a7e3 70be 9fc0 dbbe fdbb 913a e0bb 383e
000003f0: 0a79 6a3e ad3e 133a 000c ccbe a37f 87be
-0.43954903 0.3250345 0.058173824 0.05722605 -0.41220954 0.30551863 0.41458467 0.2760378
-0.039851524 0.13527346 0.2508582 0.2428944 0.36815292 0.19257732 0.03706963 -0.27403688
-0.15107864 -0.22854263 0.07111448 -0.32691264 0.22124466 -0.3550471 -0.19204257 -0.17875335
0.41226932 -0.3534104 0.42038316 -0.13624093 0.11729786 -0.2286785 -0.05848724 0.120286115
0.10952258 -0.12738307 -0.18686236 -0.24110024 0.21693875 0.07377579 -0.18580812 0.051087882
-0.19261493 -0.07807178 0.009611444 0.2377937 0.2758283 0.41922304 -0.18468417 0.42021203
0.3873897 -0.07849035 0.4478332 -0.3382483 -0.0142738 -0.29837996 -0.15322335 0.004222394
0.30210587 -0.4410698 0.0029721106 -0.36511445 -0.215905 -0.3650774 -0.30920988 0.3962085
0.38312304 -0.34851986 0.050279725 -0.22391336 0.005086791 0.23302485 0.12946653 -0.40579867
0.13689376 0.33665246 -0.24804167 -0.44141006 0.29659727 -0.10663638 -0.36492246 -0.03348568
-0.27469543 -0.37551057 0.2841716 0.02396312 -0.13957345 0.38701135 0.27768055 -0.037857454
-0.1363019 0.02684022 -0.35079274 0.22711542 -0.40103838 0.20970371 -0.29138777 -0.3911643
-0.31527787 -0.031388078 -0.2295322 -0.2225397 -0.07787711 -0.123667054 0.024715275 -0.4410227
0.2936257 -0.07476873 -0.3277974 0.28819922 0.17169447 -0.3880177 -0.07178369 0.41117725
-0.3206402 -0.12711419 0.39977664 -0.13465339 -0.35816118 -0.044097506 -0.13019012 -0.18169518
0.3793337 -0.11230565 -0.041720986 0.18789816 -0.3527307 0.3770121 0.012858401 -0.15307367
0.2837749 -0.3588415 -0.3145401 0.373982 0.2582162 0.19575447 -0.24477619 0.42727026
0.2599238 -0.1081717 -0.24764144 0.34070662 0.23832367 0.4100565 0.106319025 -0.1503655
-0.30197886 -0.29637352 0.071432434 0.25074053 0.03867481 -0.2454937 0.3414561 0.3336626
0.048689373 -0.23158042 -0.004550819 -0.056062784 0.15826535 0.08953086 -0.18417248 -0.07497658
-0.2826991 0.34581316 0.0826221 -0.020389592 0.38771805 -0.103522114 -0.14560246 0.22942244
0.24217634 -0.38724577 -0.24419223 -0.21465163 0.16017164 -0.08170616 0.035795327 0.16937377
0.32273224 0.061933927 -0.24669094 0.20975026 0.17681815 -0.3421541 0.41440967 -0.032201264
0.015545272 -0.0010957299 0.020069694 -0.43440524 0.15074424 -0.1739507 -0.32427952 -0.14325672
0.37732583 -0.0923814 0.3460415 0.33864397 -0.29908502 -0.26435843 -0.2449831 -0.27167484
-0.28361756 -0.023726525 0.12629022 -0.20893091 -0.039068393 0.07726388 -0.28603396 -0.067267865
0.084796414 0.11890134 0.2521066 0.056148943 0.3589316 0.08322559 0.35403854 -0.24395192
-0.19897896 -0.24925366 -0.3184295 -0.15519379 -0.07158256 -0.099298894 0.2970036 -0.4048023
0.1864144 -0.40676787 0.10311625 0.30804563 -0.3259228 0.40136507 0.025884485 0.06673572
0.12611234 0.06814903 -0.3910927 0.08798703 0.040902093 -0.022999655 -0.38357434 0.17565256
-0.09172211 -0.30292428 -0.3237955 -0.08277713 -0.21057844 -0.35122186 0.4144281 0.115968026
-0.23524342 -0.42920396 0.0011118647 0.18040419 0.22897735 0.00056169444 -0.39852905 -0.26464567

layer.0.bias f4 [120]
00000000: b767 58be b4e5 c4be c5b6 dd3d 2fe8 8b3e
00000010: b4c3 223e 5626 cd3e 6c9f 083e 2004 b8be
00000020: cb90 673c 2511 0f3a 58ae 5fbe 9cd9 ac3e
00000030: 6057 a93d c651 973e c7cc 973e 4d4e dfbb
00000040: ae9b 603e 1565 e23e 47a7 863e 9078 15be
00000050: 0db2 b63e 3d5d dabe 8362 dd3e 528d f5bd
00000060: 39e9 a33d 8559 2f3e 5d10 bfbe a171 ea3d
00000070: 6497 53be 97ce d4be e831 523e 9665 bf3e
00000080: 5165 873c 7ed9 a3be 134d 80be 599d c33d
00000090: d552 2d3d 4f3e bd3e f86c 57be 247e 723e
000000a0: c02b 94bd 2ebc 5dbe a61c 17be 74bf 8fbe
000000b0: 9d5d 35be 19e0 883e f494 fdbd 3c22 8c3c
000000c0: c491 633e 13eb b63d 0d14 97be 9374 93bd
000000d0: b822 6bbd e99a 883e b848 84bc 941c e03e
000000e0: 1dc1 7cbe b241 cdbe d049 84be deb8 2b3e
000000f0: e3c1 dabe fe16 a93d 29fa 69be 5568 d0be
00000100: 5730 81be 6973 d03d 152d 8ebe 5175 743e
00000110: 8e26 81be a2e0 26bd 20a5 cebe e80e f53d
00000120: 1f26 e53d 6340 463d f680 ae3e 4d64 dbbd
00000130: 5fc2 c73e fc00 dabe 02b8 d7bd 8d1c 9f3e
00000140: 05c6 b1be 93c4 dd3e 7f3e f63d f947 9cbe
00000150: 1994 c83e 5d1a 893e ecb0 9e3e a200 933e
00000160: b4e1 24be 8ca9 d5bd d7ff e13e 677d 983c
00000170: 6ab6 22be 5444 82bd 3e5b 8bbd bca4 87be
00000180: 15be e33d d9d3 b33e d96c 4d3e 3e48 15be
00000190: 595d acbc deb1 803e 0f77 fd3c 3a78 1dbd
000001a0: d471 94be 7c3d 01be 45b0 c73e 6daa f2bd
000001b0: a784 713d 9b23 9e3e faa1 e03e e341 90be
000001c0: ea7b d33e 9c34 733d 69fd d2bd 2fd0 babe
000001d0: ca9b c2be d483 8e3e 3166 093e 71de 783e
-0.21133314 -0.384565 0.10825876 0.2732558 0.15894967 0.4006831 0.13342065 -0.35940647
0.014133642 0.0005457572 -0.2184385 0.33759773 0.082686186 0.29554576 0.2964842 -0.006814754
0.21934387 0.44217744 0.26299497 -0.14596772 0.35682717 -0.4264926 0.4323922 -0.11989845
0.08003468 0.17123993 -0.37317172 0.11447454 -0.2066322 -0.41563866 0.2052685 0.3738219
0.016527804 -0.3200187 -0.25058803 0.09551496 0.042315323 0.369616 -0.21037662 0.23680931
-0.07234907 -0.21653816 -0.14757022 -0.28075755 -0.17711492 0.26733473 -0.12381926 0.017106168
0.22223574 0.089315556 -0.29507485 -0.07199969 -0.057406157 0.26680687 -0.016147956 0.43771803
-0.24683042 -0.40089184 -0.25837564 0.1676974 -0.4272605 0.082563385 -0.22849335 -0.407046
-0.25232193 0.10178263 -0.2776877 0.23872878 -0.25224727 -0.04074157 -0.40360355 0.11965734
0.11188912 0.048401248 0.34082764 -0.1071249 0.3901548 -0.42578876 -0.105331436 0.3107647
-0.3472139 0.43314037 0.12023639 -0.3052366 0.3917549 0.26777926 0.30994356 0.2871142
-0.16101724 -0.10432729 0.44140503 0.018614484 -0.15889898 -0.06360689 -0.068045124 -0.2649287
0.1112024 0.35122564 0.20061053 -0.1457834 -0.021040605 0.25135702 0.03094056 -0.038444735
-0.28993094 -0.1262111 0.3900167 -0.118489124 0.058964398 0.3088654 0.43873578 -0.28175268
0.41305476 0.059376344 -0.103022404 -0.36486956 -0.38009483 0.27834952 0.13417889 0.24303605

layer.2.weight f4 [1, 120]
00000000: 1517 013d c229 e53c 70c5 c73c b2ca 59bc
00000010: aee0 72bc c7c6 463d 78a7 7ebd 344a 823d
00000020: b154 b5bc 2b68 94bd 8022 0ebc 9d21 a0bd
00000030: db9f 58bd 1579 4abc 8d73 d23c 72e7 6cbc
00000040: c92a 913d d7f1 8abd 13e2 ac3d fdcb 18bd
00000050: 7f59 85bc 6f03 a0bd 7566 a73d fef0 6fbd
00000060: b24f adbc 2071 aabb ca10 763d ffe6 06bd
00000070: 69e5 a03c 69c1 f13c 3860 61bd 9bc7 2d3d
00000080: a647 80bc 8c58 b9bb e54c 68bd 40f4 0b3d
00000090: 6592 553c 9bbd 6abd 62d0 a93d 7120 3c3d
000000a0: ac98 113d 3c70 af3d 1c2c e53c 2b47 953d
000000b0: 3bd1 1dbd 52c8 8bbd 10b3 a63d 5414 913d
000000c0: 388c febc c046 a23c 22b7 7a3d 13f5 843d
000000d0: 8225 ba3d e6bb 783c f6bc 733d f3e1 84bb
000000e0: 9972 36bc 76ec fb3b bc82 843d bfc1 0a3d
000000f0: 42e4 82bd 84d9 80bd 3dfd ba3c ac3b a43d
00000100: e5d1 33bc 9bee 49bd 451b 9fbd 5fc3 a93d
00000110: f99a 253d 8bbf 7dbd 1a98 843c 7d3e 1c3d
00000120: 1e4e a5bc 88ad 8d3d 946d 08bb 52a1 173d
00000130: f5b4 983b 5230 0fbd 2a44 933c f758 86bc
00000140: 62b4 953d 79e7 2cbd 40d0 8e3d 95cc 1f3d
00000150: 680f 483d 072e 603d daca ae3d 94fc 303b
00000160: d338 0ebb 32e3 10bd 2939 71bd 7dd8 aebd
00000170: 8a6e ae3c f0fe b1bd 0186 ad3d 9374 0f3d
00000180: 9f33 a63c a033 8d3b 2f6b c4bc ce67 343d
00000190: b0ff d33c a149 ae3d 9ea6 52bc 10c2 943d
000001a0: d2d7 a83d 0704 0f3c 8ace aa3c 4da6 9e3d
000001b0: ab5c e2bc 0778 723d aac4 083d 06aa 50bd
000001c0: 4cd9 d03c d81f 49bc 5812 94bd 08ca 433d
000001d0: 7254 ac3d 4610 113d 5dd4 6a3d 2507 81bd
0.031516153 0.027974013 0.024386138 -0.013292955 -0.014824076 0.048529413 -0.06217143 0.063618094
-0.02213511 -0.07246431 -0.008675218 -0.07818911 -0.052886825 -0.01235797 0.025689865 -0.014459478
0.07088239 -0.067844085 0.08441558 -0.037303913 -0.016278027 -0.07813155 0.08173839 -0.058579437
-0.021156166 -0.005201474 0.060074605 -0.03293514 0.019640641 0.02951117 -0.055023402 0.042426687
-0.015659165 -0.0056563076 -0.056713957 0.03416848 0.013035391 -0.057309728 0.08291699 0.045929376
0.03554599 0.08566329 0.027975135 0.07288965 -0.038529616 -0.068253174 0.08139622 0.070839554
-0.03107272 0.019809127 0.061209805 0.06492057 0.09089185 0.015181517 0.05950638 -0.0040552556
-0.011135721 0.0076881004 0.06470248 0.033876177 -0.06391193 -0.06291488 0.022825832 0.08019194
-0.010975336 -0.049299818 -0.07768873 0.08289217 0.040430997 -0.061950248 0.016185809 0.03814553
-0.02017885 0.06917864 -0.0020817267 0.03701908 0.0046602436 -0.03495819 0.01797684 -0.016399844
0.07309796 -0.042212937 0.06973314 0.039013464 0.048842818 0.054731395 0.085347846 0.0027006017
-0.002170135 -0.03537292 -0.058892403 -0.085373856 0.021292944 -0.086912036 0.08472825 0.035023283
0.020288287 0.0043091327 -0.02397689 0.04404431 0.025878757 0.08510137 -0.012857107 0.07263577
0.082442895 0.008728988 0.020850439 0.07746563 -0.027632078 0.0591965 0.03339068 -0.050943397
0.02549424 -0.012275659 -0.07230061 0.047800094 0.08414544 0.03541591 0.05733143 -0.06300191
